src/depth_est/checkpoints/small/depth.pth (torch, 934819 bytes, 81 tensors)

total_ops f8 [1]
00000000: 0000 0000 0000 0000
0.0

total_params f8 [1]
00000000: 0000 0000 0000 0000
0.0

decoder.total_ops f8 [1]
00000000: 0000 0000 0000 0000
0.0

decoder.total_params f8 [1]
00000000: 0000 0000 0000 0000
0.0

decoder.0.total_ops f8 [1]
00000000: 0000 0000 0000 0000
0.0

decoder.0.total_params f8 [1]
00000000: 0000 0000 0000 0000
0.0

decoder.0.conv.total_ops f8 [1]
00000000: 0000 0000 0000 0000
0.0

decoder.0.conv.total_params f8 [1]
00000000: 0000 0000 0000 0000
0.0

decoder.0.conv.pad.total_ops f8 [1]
00000000: 0000 0000 0000 0000
0.0

decoder.0.conv.pad.total_params f8 [1]
00000000: 0000 0000 0000 0000
0.0

decoder.0.conv.conv.weight f4 [64, 128, 3, 3]
00000000: ed43 6c3c d5d8 e43c 4c3e 7a3b b2bb b1bb
00000010: 304c 1c3d ce6d 703c 4419 bd3c 556e 6f3d
00000020: ec7b a6bc 2197 a93c cc99 a33b a846 a6bb
00000030: 65ca 09bc a8e1 643d 3186 b2bb 8fdc eb3c
00000040: 94db 673d 8a8a b9bb 040a 3e3d bbac 7abc
00000050: 14fa babb 34db ac3c 0123 b6bc 6287 1ebc
00000060: e8d2 f93c 71fd 293c 5859 27bc 6b70 2f3d
00000070: c852 883c 0168 08bd 62bc 05bc 4680 d8bc
00000080: 993a 363a 10dd dd3c da0d 653b b13e c13c
00000090: 8cf2 30bc 611f 24bc 0433 cc3c 5330 fd3a
000000a0: 43d6 95bc 3ac4 f9bb 657b b0bc 811e 33bc
000000b0: 2a20 53bc 75f1 863c e566 093d 6f61 0d3d
000000c0: 94d8 713c 387f 1e3b 67a9 be3c b744 28ba
000000d0: 01d4 60bb 995b 0c3d 99ea e23c bc0f 23bc
000000e0: 9163 4abd 3970 e63c e6e7 e93c 39a3 80bb
000000f0: dab4 a8bb d8b8 02bc 14ac a1bc 739b e2bb
00000100: ff1c 4fbc 1b4e fa3b 2109 0cbc 1c7e 813d
00000110: 0cd9 1bbc 6db5 00bd 2b66 403d 0f4d 803c
00000120: 8e83 963c 778a 90bb 6533 da3b 5fc5 513d
00000130: 42c0 05bd 2cb0 46bd a37b fc3c abbf 17bd
00000140: f153 c1bb 04c9 563c 9571 e13c f6e9 313c
00000150: 6caa 913c 5ca8 6c3d af46 82bc 15e3 9dbb
00000160: f2f3 843c db45 8abc 034f 38bb de7e abbc
00000170: 48fb fd3c 23c9 5bbc e5f5 88bc e84a 71bc
00000180: 57b9 dcbc 233e febc 81c5 353d 3bc6 f83c
00000190: 650d 01bd 86df a4bc c1fe b1bb 14fb 623d
000001a0: 1a44 b8bc b299 303d fe8c c03d f4e1 0bbd
000001b0: ad94 e4bc acda f2bc 5c0a ae3c 3e16 2cbd
000001c0: ff30 433b 4a79 e13c e9cc 94bc 59eb d8bc
000001d0: 53b4 d63c 6ea2 9cbc ae2f 6ebb 1af7 83bd
000001e0: 5335 63bc dfba 6ebd 49cd 7abc 352c 8fbc
000001f0: cafc 54bc 7fed 70bd 4022 bdbc 0598 7f3c
00000200: d967 573d aa6e d6bd 5ff1 4ebc 847f fe3c
00000210: cda1 01bd 1839 8e3c 75c1 e638 7ccb 403d
00000220: 7659 ad3c a67e 6ebd 85a0 283c 4843 4abc
00000230: 1639 fabc 64c9 1fbc 8f0b 03bd 3507 25bd
00000240: 55c7 2d3c 2be3 eebc 9f97 24bd c38d 843c
00000250: fd05 1dba 58cf 83bc 982b fa3c 1747 9a3c
00000260: 39e0 89bd 7984 1c3a a0ca fdbc 5a20 913c
00000270: e58f 73bc 49ea ccbc 5e34 4c3d 8d91 88bd
00000280: 060f 28bd 3c40 ba3b 7f1a ea3c 7b6f d4b8
00000290: 2120 3dbc 2ed0 45bc 8092 1b3d b39f 2a3c
000002a0: 6a95 61bc f247 ba3d 560f 78bd 7254 a0bc
000002b0: a213 02bd b932 a1bb d30c 4fbd 269e 81bd
000002c0: b824 543c b1a3 dfbc 073a f93a 5704 543d
000002d0: cd76 58bc d0ff d0bc 7a01 93bc c7ea e23c
000002e0: c56a 36bc 29d1 2ebd b8b2 62bd 7bda fbbc
000002f0: 1ec6 323d 2fe0 a2bb 060d d83b e060 1e3b
00000300: 2e42 57bd 53d2 80bd 0e25 0d3d d3dd a9bd
00000310: b760 23bd 4e5a 7e3d e4ac 133d 9847 96bc
00000320: 0163 ccb9 3a79 c63c 4738 943d e0b0 7b3c
00000330: c7c5 213d 221e 813d 0eb5 40bd 947a ebbc
00000340: 67ae 903b 0de2 bb3c 63e9 35bc da4d 943a
00000350: 2949 fa3b 8f0c d5bc 26b4 0d3d 4d6b 1bbc
00000360: 03c4 1ebc 79b4 073b 0eca 2f3d d3de d7bd
00000370: 27c3 05bd 1e7a b33c 0741 90bd bcc5 5f3c
00000380: 1c0b 6d3b 05db 8fbc 013d 41bc 6197 81bc
00000390: 27b1 ae3b d2fc 793d ff69 c6bc fec6 9e3c
000003a0: 4d78 263d f046 64bd 0956 b3bc 2e81 803c
000003b0: 403d 393d 42bd cfbb d818 293d e2a8 e2bc
000003c0: ece0 bd3c c73e 5cbb 4c33 60bd 27f5 45bc
000003d0: 169f 88bb 01c7 223b 0eb1 223d 1a0f 1fbd
000003e0: e07e 03bd d0c6 d23c e657 ffbc 3509 96bd
000003f0: 9da0 67bc c55a 023c be5c 323c e2ae e9bc
0.014420492 0.027935425 0.0038184104 -0.0054239864 0.038158596 0.014674617 0.023083337 0.05845483
-0.020322762 0.020701947 0.0049926993 -0.005074341 -0.008410071 0.055879265 -0.005448126 0.028791694
0.05660589 -0.005662267 0.04639627 -0.015299971 -0.005706081 0.021100618 -0.022233488 -0.009675832
0.030496076 0.010375367 -0.010214172 0.04283182 0.016641036 -0.03330231 -0.00816259 -0.026428353
0.0006951481 0.02708295 0.0034950883 0.023589464 -0.010800015 -0.010017247 0.02492667 0.001931677
-0.018290645 -0.007622269 -0.021543214 -0.010932566 -0.0128860865 0.016472558 0.033545393 0.034516748
0.014761109 0.0024184715 0.023274137 -0.0006418931 -0.0034306052 0.03426704 0.027699756 -0.009952482
-0.04941136 0.028129684 0.02855296 -0.0039257077 -0.0051485123 -0.0079786405 -0.019735374 -0.0069155036
-0.012641191 0.0076387054 -0.008547098 0.063228816 -0.009512197 -0.03142302 0.046972435 0.015661744
0.018373277 -0.0044110375 0.0066589587 0.05121362 -0.032654054 -0.048507854 0.030820673 -0.037048023
-0.005899899 0.013109449 0.02751998 0.010859003 0.017781459 0.057777748 -0.015902845 -0.00481833
0.016229603 -0.016879013 -0.0028123267 -0.020934518 0.03100361 -0.013414654 -0.016718814 -0.014727332
-0.026943846 -0.031035488 0.044377808 0.030367961 -0.031506915 -0.020126116 -0.0054319804 0.055415228
-0.02249341 0.043115325 0.09401892 -0.034151033 -0.027902925 -0.029645287 0.021245174 -0.0420134
0.0029783843 0.027523655 -0.018164115 -0.02647941 0.026209032 -0.019120421 -0.0036344337 -0.06443615
-0.013867694 -0.058283683 -0.015307733 -0.017477134 -0.012999723 -0.058820244 -0.02308762 0.015600209
0.05258927 -0.10470326 -0.01263079 0.031066664 -0.031648446 0.017361209 0.00011003289 0.047069058
0.021160822 -0.05822625 0.010292177 -0.012345143 -0.030544799 -0.009752605 -0.031993445 -0.040290076
0.0106066065 -0.029161057 -0.04018366 0.016180879 -0.0005989967 -0.01609008 0.030538365 0.018832726
-0.0673222 0.00059706677 -0.030980408 0.017715622 -0.01486585 -0.02501406 0.04985463 -0.066683866
-0.041029952 0.005683927 0.028577087 -0.000101297126 -0.011543305 -0.01207356 0.03798151 0.010414052
-0.013768533 0.09095754 -0.0605615 -0.019571517 -0.031757005 -0.0049193767 -0.05054934 -0.063289925
0.012948208 -0.027299734 0.0019014486 0.05176195 -0.013211918 -0.025512606 -0.01794504 0.027699841
-0.011133854 -0.04267994 -0.05534622 -0.030743828 0.04364597 -0.0049705724 0.0065933494 0.0024166629
-0.05255335 -0.06290116 0.034459166 -0.08294263 -0.039887156 0.06209784 0.036053553 -0.018344685
-0.00038983676 0.024227727 0.072372966 0.0153619945 0.039495256 0.063045755 -0.047047667 -0.028744973
0.0044153216 0.022934938 -0.011103007 0.0011314705 0.007638116 -0.026006965 0.03459563 -0.009486032
-0.0096902875 0.0020706935 0.042917304 -0.10540547 -0.032656815 0.021908816 -0.07043653 0.013657983
0.0036169952 -0.017560491 -0.01179433 -0.015819253 0.005331177 0.061032124 -0.024220465 0.019381996
0.04064207 -0.055731714 -0.02189161 0.015686598 0.04522443 -0.0063397 0.04128346 -0.02766842
0.02317854 -0.0033606754 -0.05473642 -0.012082375 -0.004169355 0.0024837854 0.039719634 -0.03883276
-0.03210342 0.025729567 -0.031169843 -0.07325975 -0.014137414 0.007956211 0.010886369 -0.028525773

decoder.0.conv.conv.bias f4 [64]
00000000: 1661 bcbc 4b30 c9bc bae4 12bd f145 f03b
00000010: ba81 bbbc e145 65bc 4b6e 06bd f3e6 8b3b
00000020: 6bee 0abc d852 2d3c 73ef 08bb 2fc0 7a3b
00000030: 38be d1bb 8b77 ad3b 7963 acbb 5159 62bc
00000040: 3dde 203c cdd9 26bd b526 d4bb 37f9 ae38
00000050: 0fa6 43bc 6941 5ebc fd94 b5bc 3139 7f3b
00000060: 687e 92bc cfab e0bb fb39 2bbc 5a09 9e3b
00000070: fd89 40bb 93f1 a9bb 8985 cbbc 92bc 64bc
00000080: 8a4e 26bc 69de 6a3c 41bb 1fbc 588b a0bb
00000090: 8925 60bc b821 e93b 4699 bfbc ca73 0f3c
000000a0: 347e 84bc 24b2 28ba 526c 2ebc dade 5b38
000000b0: 7ff6 553c 4482 a23c d829 433c 3be0 fd3c
000000c0: a7d1 cdba c860 893c f993 5cbc beb9 deb9
000000d0: 8170 7ebc ecc7 babb b9fd f8bc 6714 7dbc
000000e0: 2f2b 5dbc b619 153b 473b 92bc 712e 50bc
000000f0: 9c48 2b3c bb9d 17bd ee8a b9bb 0e68 b9bc
-0.022995513 -0.02455916 -0.035862662 0.0073325564 -0.022889007 -0.013993711 -0.032820027 0.0042694747
-0.008479695 0.0105788335 -0.0020894676 0.0038261523 -0.0064008497 0.0052937916 -0.0052608815 -0.01381524
0.009818611 -0.040735055 -0.006474341 8.3433864e-05 -0.011941447 -0.0135654 -0.02216577 0.0038944
-0.01788254 -0.0068564187 -0.010450835 0.004822892 -0.0029379122 -0.0051862686 -0.024843948 -0.013960974
-0.010150561 0.014335253 -0.009749235 -0.0048994236 -0.013680824 0.0071146153 -0.023388516 0.008755634
-0.01617346 -0.00064352364 -0.010645943 5.2421216e-05 0.0130592575 0.019837506 0.011911832 0.03099071
-0.001570274 0.016769782 -0.013463014 -0.00042481528 -0.015529753 -0.005700102 -0.030394422 -0.015446759
-0.013499065 0.002275092 -0.017850531 -0.012706385 0.010454323 -0.037015658 -0.0056623137 -0.022632625

decoder.0.nonlin.total_ops f8 [1]
00000000: 0000 0000 0000 0000
0.0

decoder.0.nonlin.total_params f8 [1]
00000000: 0000 0000 0000 0000
0.0

decoder.1.total_ops f8 [1]
00000000: 0000 0000 0000 0000
0.0

decoder.1.total_params f8 [1]
00000000: 0000 0000 0000 0000
0.0

decoder.1.conv.total_ops f8 [1]
00000000: 0000 0000 0000 0000
0.0

decoder.1.conv.total_params f8 [1]
00000000: 0000 0000 0000 0000
0.0

decoder.1.conv.pad.total_ops f8 [1]
00000000: 0000 0000 0000 0000
0.0

decoder.1.conv.pad.total_params f8 [1]
00000000: 0000 0000 0000 0000
0.0

decoder.1.conv.conv.weight f4 [64, 144, 3, 3]
00000000: 2126 873c 96f8 16bd 15b3 4bbd 561a 0cbd
00000010: 8fce 86bc 17b7 66bd 48cb 1cbc 365e a63b
00000020: 45aa cabc dec2 9ebb 8441 033d 9c55 dd3c
00000030: f297 95bc e47b 953b 1d2b fdbb 77af 353d
00000040: 4050 83bc ac24 a9ba 2073 113d f19e ce3c
00000050: 3508 6c3c 4eaa 633c 5d05 4e3d 77fc fb3b
00000060: 62d4 96bc c731 7a3c 3af3 e53a d977 fd3c
00000070: 25ce aebc ec06 853b 74b1 be3a 4591 d8bb
00000080: b2e5 33bd a006 033d b90b 213c a5df 143d
00000090: ec73 08bc 596f 893c b442 243d 7de2 d6bc
000000a0: b278 503d d01c 333c 80fb 61bd 0198 fc3b
000000b0: fdb2 153d d7de 0dbc 544f 9c3b e9a1 dc3c
000000c0: cfd6 6b3c e388 ef3b 08eb fb3b 9886 9a3c
000000d0: 7e2a 4aba ce3e d83c 64ee 52bd 4ffe 7a3c
000000e0: 7b63 623b edfc 8fbc 7ab8 d9bc bd61 4fbc
000000f0: a36a 6a3b 63a5 1e3d f556 263d b32c 09bc
00000100: 5eca 4abc 5d1f 903c 0006 10bc 9701 8bbc
00000110: 5611 863c 7f49 ffbc aa61 a93c fc62 0c3d
00000120: 24e5 31bd d0ac a7bc 90f8 e3bc 698e a23b
00000130: c9e5 16bd 0443 07bd 19b3 fcbc 06db ee38
00000140: 8c6d 1ebd 8c95 0f3d 88d1 33bc fb06 e33c
00000150: 042e d53c 6e7f 50bc aec3 653d c6b6 313d
00000160: a178 613d 98c1 963d 8769 ba3c 0886 483d
00000170: 89b0 f53c d704 e3b9 1e5f 5a3c 0d6d f8bc
00000180: aa63 46bd a004 1dbc 6074 0dbd efc7 a83b
00000190: b97e b7bb 6d29 6e3b 79ee 193d f5e8 023d
000001a0: 3f4d 93bc 2f3e 963c f86a 173d cac9 263d
000001b0: acc5 f1bc 8371 1ebd 91a9 f2ba 0487 2fbd
000001c0: f8f6 08bd 5412 18bd b4a5 51bd 6191 5abc
000001d0: 4aa5 39bd 3bcd a33c 8e3f dd3c e93f c33c
000001e0: 9005 b83c 3acb 263d 65a7 d43c 780d b13a
000001f0: 0f1b 3eba fe7d 90bc 6cc7 0a3d 8423 e93c
00000200: 1cb4 f2bc 5628 1ebb 5891 813c d723 3cbb
00000210: 949c 88bb 66e4 f13b dda5 a5bc 88bc abbc
00000220: bbc6 87bb 16fb 25bc b82a 823c 8955 babc
00000230: 8919 92bb 05d0 38bd 45e1 15bd 40b9 73bc
00000240: 9ac7 2a3d 53ce d7bb dccd 1038 8cb4 0cbc
00000250: d5dd 96bc aa9f 3dbc 783e e2bc 5224 69bd
00000260: 9c23 bbbc b07d 2dbb 253e 0f3d 3eda c6bc
00000270: de2e 433c 407e 00bc 6a29 24bd fd0d 883b
00000280: 3efb 123c f3af 61bc 5773 243d 4497 673c
00000290: ee0e 303d 546d 0ebb 09af 82bc 6581 23bb
000002a0: 9bc2 4bbd fe0b f23a b09d a3bc d741 f0bc
000002b0: b2a4 08bd 68e1 51bd 7935 ec3c 2ba8 1bbd
000002c0: cc3d 31bd 2577 35bd f613 0ebd 8db3 26ba
000002d0: 69f3 ffbc ad04 2a3c dcc4 d63b 40f8 823c
000002e0: bcc4 a3bc 921a c5bc 1c5f d0ba dca6 49bc
000002f0: 597b 11bb 938c 31bc 8c69 8abb de06 23bd
00000300: ddda 1bbb 32df e7bb a48d 0ebd e38b 9c3c
00000310: 205f 443c 3b68 d73b 8ddf 9c3c d579 e03c
00000320: e748 da3b 446c 9c3b bf33 d3bb ac59 16bb
00000330: 9f0b 32bc 5981 153c dfec bd3b 14f2 5e3c
00000340: 6a63 333d b0db 143d 3fb9 953c 1467 503d
00000350: 8fbb 1e3d 1cb9 c03b 554d cc3c f893 4f3c
00000360: 39be 98bc 961a 2abd 9222 a2bc c45b 863b
00000370: 3e11 48bc b3af b73c a2e3 e33c 0cdb b93c
00000380: 72ce 63bc 614a 753c 2994 043d eb88 f53c
00000390: ac26 8cbb 654c 0a3d f338 143c aa55 f9bc
000003a0: ad85 843c ec5f b5bc 9cc4 86bc 701b 38bc
000003b0: 6e63 30ba 4cae d73b 7492 a1bc f7d7 52bc
000003c0: 684f babc 7cce a1bc e434 47bb c8ca 80bb
000003d0: d43a 6cbb e700 f0bc e5d0 2c3d 22bb 443d
000003e0: 1add 203c 7b1f 11bc 8192 f63c 71da 093d
000003f0: bcd5 783c 545d 9d3b f7dd 073c e2c7 513d
0.016497673 -0.036858164 -0.049731333 -0.034204803 -0.016455917 -0.05632695 -0.00956995 0.005077149
-0.024739394 -0.0048450073 0.032044902 0.02701836 -0.01826093 0.004561888 -0.007726087 0.04435679
-0.016029477 -0.0012904606 0.035510182 0.025222274 0.014406254 0.013895584 0.050298084 0.0076900083
-0.018411819 0.015270657 0.0017543801 0.030940937 -0.021338532 0.004059663 0.0014548735 -0.0066091144
-0.043920226 0.03198874 0.009829455 0.036346097 -0.008328419 0.016776728 0.040102676 -0.026231045
0.050896354 0.010932162 -0.05517149 0.00770855 0.03654765 -0.008659086 0.004770199 0.026932674
0.014394476 0.0073100193 0.00768793 0.018863007 -0.00077120203 0.026397135 -0.05149688 0.015319421
0.0034544158 -0.01757666 -0.026577223 -0.01265758 0.0035769127 0.038731944 0.040610272 -0.0083724735
-0.01237735 0.01759308 -0.008790493 -0.016968532 0.016365688 -0.031162975 0.020676453 0.034274086
-0.043431416 -0.020468146 -0.027828485 0.0049608243 -0.036840234 -0.033022895 -0.03084712 0.00011389521
-0.03867869 0.03505473 -0.010975249 0.02771329 0.026022919 -0.012725694 0.056094818 0.043387197
0.05504668 0.07361144 0.022755397 0.048955947 0.029991405 -0.0004330042 0.013328342 -0.030325437
-0.04843489 -0.009583622 -0.034534812 0.005150787 -0.0055998233 0.003634061 0.03758094 0.031960446
-0.01798117 0.018340198 0.036967248 0.040719785 -0.029513203 -0.038682472 -0.001851367 -0.04285337
-0.033438653 -0.037126854 -0.051183417 -0.013340325 -0.045323648 0.019995322 0.027007844 0.023834186
0.02246359 0.040721156 0.025958726 0.0013508042 -0.0007251957 -0.017638203 0.03388159 0.028459318
-0.029626898 -0.0024132929 0.015816376 -0.0028707886 -0.004169056 0.0073819635 -0.020220691 -0.020963922
-0.0041435636 -0.010130664 0.01588951 -0.022745864 -0.0044586104 -0.045120258 -0.036591787 -0.01487571
0.04169426 -0.006585875 3.4523997e-05 -0.008587968 -0.018416325 -0.011573711 -0.027617678 -0.056919403
-0.022844128 -0.002647262 0.034971375 -0.024273988 0.0119130295 -0.0078426 -0.040078558 0.004152058
0.008971034 -0.01377486 0.04014906 0.014135186 0.042982988 -0.0021732645 -0.015952604 -0.0024948951
-0.049746137 0.0018466709 -0.019972652 -0.02932827 -0.03336019 -0.051240355 0.028834091 -0.038002174
-0.043271825 -0.04430308 -0.034687005 -0.00063591526 -0.031243997 0.010377091 0.006554229 0.015987515
-0.019991271 -0.024060521 -0.0015897485 -0.012307849 -0.0022198765 -0.010836738 -0.004224008 -0.03980147
-0.0023781576 -0.0070761675 -0.034803048 0.019109672 0.01198557 0.0065737045 0.019149566 0.027401844
0.0066615227 0.0047736485 -0.0064453776 -0.0022941632 -0.0108670285 0.009125077 0.0057960595 0.013607521
0.04379598 0.036342323 0.018276809 0.050879553 0.03875309 0.0058814418 0.024939219 0.012669556
-0.018645393 -0.04152926 -0.019791875 0.004100295 -0.012211142 0.022422647 0.027818505 0.022687458
-0.013904201 0.014971347 0.03236786 0.029972514 -0.004277071 0.03376426 0.009046781 -0.030436356
0.016177023 -0.022140466 -0.016451173 -0.01123701 -0.00067286834 0.006582057 -0.019723155 -0.012868873
-0.022742942 -0.01975178 -0.0030396516 -0.0039304234 -0.0036045806 -0.029297305 0.042191405 0.048030026
0.00981834 -0.008857603 0.030099155 0.033655588 0.015187677 0.0048023853 0.008292667 0.051216014

decoder.1.conv.conv.bias f4 [64]
00000000: 62e0 0abc 5499 b8bc c403 84bb 8641 cabc
00000010: 152d 853c 2149 1cbd 6fa8 bfbc 5e02 713c
00000020: fb44 d23b 2255 c7bc ce74 4cbc b6f0 67bd
00000030: c58c 383c b113 82bd c36d 213c a48c 8abb
00000040: 6152 bdbb 9b7e 00bc 06a6 44bc 0c37 5d3b
00000050: f7e2 bcbc 6b27 7b3c acee 833b a889 52bd
00000060: 9f2d 00bd f4fc 663c 6c0b 99bd 0cc4 3e3b
00000070: 6c71 a2bb e85d b4bc 3fe7 043d d497 8cbc
00000080: 324e 443a fd91 1e3c 1bb1 10bd 401a a43b
00000090: adac a4bc 3248 6ebd 1b04 f6bb f954 15bd
000000a0: c00c a33b 93ab 993c ba87 01bc 16a6 6b3b
000000b0: 2e75 8a3c ba4a 423b 7781 ea3c 1002 afbc
000000c0: 762b 593c 97e3 a63c c0fe 92bc db4b 653c
000000d0: 2ec9 c1bc 036e 6eba 030f 00bd f2c5 1639
000000e0: 8a7a 8dbc c49a a73c 73b6 873b ef3c 2abc
000000f0: 42df 92bd e81e e63a c287 53bc bb9c 4abc
-0.008476349 -0.02253405 -0.004028769 -0.024689447 0.016256848 -0.03815568 -0.023395745 0.014710037
0.0064169145 -0.024332587 -0.01247902 -0.056626044 0.011264031 -0.06351412 0.009852829 -0.0042281915
-0.0057776426 -0.007842685 -0.012002474 0.0033754734 -0.023057444 0.015329222 0.0040262546 -0.05140081
-0.031293508 0.014098395 -0.07472882 0.0029108552 -0.0049573686 -0.022017434 0.032447096 -0.017162241
0.00074884587 0.009678361 -0.03532515 0.005008012 -0.02010187 -0.05817432 -0.0075078136 -0.03645799
0.004975885 0.01875857 -0.007905895 0.003595715 0.016901579 0.0029646591 0.028626187 -0.021363288
0.013254991 0.020372195 -0.01794374 0.013995136 -0.0236555 -0.00090953725 -0.031264316 0.00014378855
-0.017270345 0.02045954 0.0041416227 -0.010390504 -0.07171489 0.0017556818 -0.012910785 -0.012366469

decoder.1.nonlin.total_ops f8 [1]
00000000: 0000 0000 0000 0000
0.0

decoder.1.nonlin.total_params f8 [1]
00000000: 0000 0000 0000 0000
0.0

decoder.2.total_ops f8 [1]
00000000: 0000 0000 0000 0000
0.0

decoder.2.total_params f8 [1]
00000000: 0000 0000 0000 0000
0.0

decoder.2.conv.total_ops f8 [1]
00000000: 0000 0000 0000 0000
0.0

decoder.2.conv.total_params f8 [1]
00000000: 0000 0000 0000 0000
0.0

decoder.2.conv.pad.total_ops f8 [1]
00000000: 0000 0000 0000 0000
0.0

decoder.2.conv.pad.total_params f8 [1]
00000000: 0000 0000 0000 0000
0.0

decoder.2.conv.conv.weight f4 [40, 64, 3, 3]
00000000: 0b87 bc3c dd31 1abb e8df 04bd 4d37 4d3a
00000010: ffae 56bc 47d4 f7bc 211e 55bc 1926 c33c
00000020: ff53 b43c 6bfc f23b 32e1 dcbc 93f0 023d
00000030: d5a4 e8bc 1439 08bc 62c6 ad3b d28b abbc
00000040: b1c5 21bc 0596 51bc 999e 063c 736e 02bd
00000050: 6ce6 f1ba 66b1 1fbd f57d 143d 69a8 e0bb
00000060: 10d2 113a 39f5 263d f055 34bc 5766 49bb
00000070: e5a0 f03c 0b92 02bd 3422 77bd cdf0 ef3c
00000080: 5f4b c5bc 94bc 4a3c f3eb f83d 5faf 873b
00000090: 070a 0ebc 3088 3abc 16a3 7d3b e80d 9a3b
000000a0: a1d8 78bd 0894 183b 0b39 903c 8176 01bc
000000b0: c845 123d 5d38 6dbb 6d72 0c3a 7c87 9f3c
000000c0: de4a 7f3c c3db 283c 6df1 a03d 78fa 803a
000000d0: ff6d 983c ec44 60bc f334 5abc 44d1 d2bc
000000e0: b268 fbbc 3e88 a3bb eb9f ebba 1235 993c
000000f0: 78c0 60bc 52e8 d63b 40fc bf3b ba23 0a3d
00000100: 0f98 153d e19a b03c cf1e 6c3c 9819 e6bb
00000110: 31e1 4d3c b6e4 d4bc 20dd b5bc 7d3b 2f3d
00000120: 943b 9f3c b625 733c ad91 043c 5954 b0bc
00000130: 66c8 9b3c 94de dc3c 3c1e 6c3d 9d16 c9bb
00000140: ae20 83bb 27ee f4bc 454a c23c 75c5 dcba
00000150: c784 00bd 7493 f0bc 7898 49bc 6d8b 89bc
00000160: 034a e13c 6235 a13c 93cd c7bc 6893 8c3c
00000170: c66c 94bc 087a 363c 7600 593d 581c 1e3d
00000180: 3712 b03c 9dc6 163d b6df 84bc 6056 7f3d
00000190: 9df9 dd3c a98e a0bc 0ca6 643b 457b 1cbd
000001a0: b533 76bc ee3a 813a 6586 9c3c 91b3 523c
000001b0: 9085 bc3c f7f6 a43c 730d 31bd 796a 6f3d
000001c0: a738 023c 5e8b 543d 6012 b73c c7bb c1bc
000001d0: 7913 febc ac9a 1ebd 41f3 673d 6afb b2bb
000001e0: c1d3 04bc 7d59 223c 2992 48bc 163a 193c
000001f0: dd12 1a3c 59d6 58bc bb39 42bd 74b1 d4bc
00000200: e1d1 4fbd fbbd 0c3d 284f 9c3d 037e 34bc
00000210: ff3e f43c ea72 493d a820 e5bc c538 a1bc
00000220: ba9c cdbc 1c8d 48bc 722b 0b3d c877 3f3d
00000230: 5781 4e3c 6e5d 303d e98a a1bc 1b3b ae3c
00000240: e6bf 433d 00af a5bb a5ad f83c 2917 6a3d
00000250: 71a2 693d 2e27 353c 7c55 7fbd 4452 1ebd
00000260: aab5 49bd 30d4 a23b 4fac 343d 13af 0b3c
00000270: f043 ab3c f5da 2cbc bf31 91bc b5a5 f5bc
00000280: 5d64 853c 634b a03c 1a41 663d cc11 1f3b
00000290: 5a87 8d3b e0d7 f3bc 174e 41bd 329f 933c
000002a0: d746 80bc 5981 e8bc 320d 2e3b 7e70 2e3c
000002b0: 1946 be3c e057 0f3c a2a7 eb3c f776 173d
000002c0: 117b 85bc e343 9a3c a014 aa3b 099d eabc
000002d0: e2d2 293c 8561 b8bc 1d68 403c 379f a83b
000002e0: fbe3 f53b d1a9 34bc 9558 223c 1b70 9f3c
000002f0: 9c8a ff3b 4216 5cbd 43f7 58bb 1f80 2d3d
00000300: b51d 5ebd 8f59 4bbc 6bad b8bc aa81 6cbc
00000310: 08d8 e23c 8c5f af3c 1f53 0dba 4d94 1cbd
00000320: ea3e cbbb 91e4 19bd 2f59 58bd defa b3bb
00000330: a676 68bc e4e0 a8bc 5669 d43c c838 9bbc
00000340: 595d 78bd f123 c4bc 9431 d3bc 10d6 2f3a
00000350: 3f4c bebc 8510 193c 6a32 c63c 96bd 58bc
00000360: 3398 6f3c 3549 37bc 33cb 073d a74a 053d
00000370: 6ef6 31bc fbda 9cbc fee7 e33b de7b 95bc
00000380: 1dbb 163c d2a8 993b 87ba 9bbc 906b 283c
00000390: 8e40 73bb a5ff 0a3c f9f7 98bc 3470 083c
000003a0: 580a c43c 6f86 57bc 9d4d 2bbc 093e 16bb
000003b0: a80e ef3a 08e1 dbba ad0a 863c 98b8 cfba
000003c0: e29f 20bc 1247 c6bc a0ab 0b3c 3d51 1fbc
000003d0: 5c15 3bbc a6f8 5e3c 9c8e a4bc 2c47 86bc
000003e0: 6ace 77bc 1d30 973c 8776 9d3b 5ad5 583c
000003f0: 266c 353d 00e4 1dbd 29dc d63a 6158 2ebd
0.023013612 -0.0023528256 -0.032440096 0.000782837 -0.013103246 -0.030252589 -0.013007672 0.023821877
0.022012709 0.0074153445 -0.02696285 0.03196771 -0.02839891 -0.00831439 0.00530319 -0.020940695
-0.009873793 -0.012792115 0.008216524 -0.031843614 -0.0018455512 -0.03898754 0.036252934 -0.0068560136
0.0005562613 0.040761206 -0.011006817 -0.0030731165 0.029373595 -0.03187756 -0.060335353 0.029289627
-0.024083791 0.012374062 0.12154379 0.004140779 -0.008669383 -0.011385009 0.0038701943 0.004701365
-0.06075347 0.0023281593 0.017605325 -0.007901789 0.03571108 -0.0036196925 0.0005357627 0.019473784
0.015581815 0.0103063015 0.07858548 0.000984027 0.018607138 -0.013688307 -0.013318288 -0.025734551
-0.030689571 -0.0049906066 -0.0017976736 0.018702064 -0.013717763 0.0065584565 0.005858928 0.033725478
0.036521968 0.021558227 0.014411642 -0.007022094 0.012565897 -0.025987964 -0.022200167 0.04278134
0.019437589 0.014840534 0.008091372 -0.021524595 0.019016456 0.026961602 0.05764602 -0.006136729
-0.0040016985 -0.029898716 0.023717055 -0.0016843515 -0.031376626 -0.029367186 -0.012304418 -0.016790116
0.027501112 0.019678775 -0.024390018 0.017160133 -0.018118273 0.011137493 0.052978955 0.03860125
0.02149306 0.036810506 -0.016219955 0.062338233 0.027096564 -0.019599276 0.003488901 -0.038203496
-0.015026976 0.0009859481 0.019107053 0.012860195 0.023012906 0.020137293 -0.043225717 0.05845115
0.007948077 0.051890723 0.02234763 -0.02364911 -0.031015145 -0.038721725 0.05662847 -0.0054621
-0.008107127 0.009909031 -0.012241879 0.009352228 0.009403911 -0.013234698 -0.047418337 -0.025963522
-0.050737265 0.034360867 0.07632285 -0.011016372 0.029815195 0.049181856 -0.027969673 -0.01968039
-0.025099147 -0.012240674 0.03397698 0.04674509 0.012604079 0.04305785 -0.019719558 0.021268418
0.04779043 -0.005056262 0.030356238 0.057150993 0.05703968 0.011056704 -0.062337384 -0.038652673
-0.049245514 0.0049691424 0.04410964 0.008525628 0.020906419 -0.01055025 -0.017723916 -0.029986242
0.016283209 0.019567197 0.05621443 0.0024272082 0.0043191137 -0.029766023 -0.047193613 0.018020246
-0.01565878 -0.02838199 0.0026558158 0.010646937 0.023226785 0.008748978 0.028766457 0.036978688
-0.016294034 0.018831199 0.005190447 -0.028639333 0.01036522 -0.022507438 0.011743573 0.005145933
0.007503984 -0.0110268155 0.009908815 0.019462636 0.007798506 -0.053732164 -0.0033106364 0.042358514
-0.05422755 -0.012411489 -0.02254363 -0.014435211 0.027690902 0.021407865 -0.0005391109 -0.03822737
-0.0062025683 -0.037571494 -0.052819427 -0.005492552 -0.014188444 -0.020615049 0.025929134 -0.018947974
-0.0606359 -0.02394292 -0.025780477 0.0006707618 -0.023229716 0.0093423175 0.024193961 -0.013228795
0.014623689 -0.0111868875 0.03315277 0.032541897 -0.010861976 -0.019147387 0.006955146 -0.018247541
0.009199885 0.0046893144 -0.019009842 0.010279551 -0.0037117335 0.008483802 -0.01867293 0.008327533
0.023930714 -0.01315461 -0.010455516 -0.002292516 0.0018238621 -0.0016775439 0.016362512 -0.001584786
-0.009803744 -0.02420381 0.008524805 -0.009723959 -0.011418667 0.013609087 -0.020087533 -0.01639136
-0.015124897 0.01845556 0.0048053893 0.013234461 0.04429259 -0.038547516 0.0016392517 -0.042564753

decoder.2.conv.conv.bias f4 [40]
00000000: 59dc 10bb 6588 09bc fd8f 82bc a74c f13b
00000010: 9038 1a3c 7fcf 353b 9f80 363c 3ba5 68bc
00000020: b671 a1bc c980 dcbc c19d 70bc 885a 083b
00000030: bb9c 1c3b 3343 bcbc ee50 c9bc 9ec1 60bc
00000040: 3218 9fbc 0fb0 4f3c 828c 9dba 0e30 dd3b
00000050: 98bf 883c 69da 08bb 2c33 233c 66da ebbb
00000060: f0cf 093d 91b4 d9bc 06e4 433c aa39 3dbc
00000070: a9a1 f23b a472 d6bc 5e2e 41bc d761 94bc
00000080: e2bc c1ba 4897 64bc 05fd 44ba e517 483b
00000090: d698 c8bb 164a 94bb 61c3 453c 8f7c 143c
-0.0022103994 -0.008394335 -0.0159378 0.007363874 0.0094129 0.0027742086 0.011139064 -0.01419955
-0.019707542 -0.026916878 -0.014686049 0.0020805914 0.002389713 -0.022981262 -0.024574723 -0.013718037
-0.019420717 0.012676253 -0.0012020024 0.0067501133 0.016692922 -0.0020882136 0.009960931 -0.007197666
0.03364557 -0.026575359 0.0119562205 -0.011549393 0.0074045253 -0.026177712 -0.01179084 -0.01811306
-0.0014781023 -0.013952084 -0.00075145095 0.003053182 -0.006121735 -0.0045254333 0.012070508 0.0090629

decoder.2.nonlin.total_ops f8 [1]
00000000: 0000 0000 0000 0000
0.0

decoder.2.nonlin.total_params f8 [1]
00000000: 0000 0000 0000 0000
0.0

decoder.3.total_ops f8 [1]
00000000: 0000 0000 0000 0000
0.0

decoder.3.total_params f8 [1]
00000000: 0000 0000 0000 0000
0.0

decoder.3.conv.total_ops f8 [1]
00000000: 0000 0000 0000 0000
0.0

decoder.3.conv.total_params f8 [1]
00000000: 0000 0000 0000 0000
0.0

decoder.3.conv.pad.total_ops f8 [1]
00000000: 0000 0000 0000 0000
0.0

decoder.3.conv.pad.total_params f8 [1]
00000000: 0000 0000 0000 0000
0.0

decoder.3.conv.conv.weight f4 [40, 88, 3, 3]
00000000: bb37 e63b fed3 133d 748f 7f3b b10a da3c
00000010: 1832 02bc a441 2a3c 1991 96bc 5462 2bbc
00000020: cc6d e5bb 959b 9d3b 19bd 3d3c 42dc 983c
00000030: 7efe 73bc 1b2e b1bc 524f 83bc ff50 2cbd
00000040: bf39 c0bc 4ca4 d5bc 4603 943c 11ab bfbc
00000050: f301 bb3c 9d4c 56bc 4243 ab3b 5fc4 0fbc
00000060: 5a4e 16bd eff0 bc3c 3338 e4bc 1c3e 533c
00000070: ce8e 83bc 3afa af3b 96c1 bdbc c333 faba
00000080: 1164 f2bc b32d 863c b169 d93c b0b6 25bc
00000090: 8ce7 d5bb 5d0b c3bc 9c10 4e3c e364 993c
000000a0: a7ad 8a3b 03cb 89bc 2a7a dbbc d3ff cbbb
000000b0: 0884 953b 9df1 933c 0dc5 993c 53bb 263d
000000c0: 6a3c 4dbb 68c7 d9bb ab6a 1bbc 33ad 713c
000000d0: 17fc 76bb 9fd9 ae3c 9276 b23b d4a7 9abc
000000e0: 6d48 c03b 42e4 6dbb 4ffd 0b3b 6273 073b
000000f0: d003 f8bc d8d1 123c ef18 96bc 3486 ddb9
00000100: 0226 323d cece aaba 0a9e 723c d148 253c
00000110: 8371 09bd c089 813c 6e54 3bbc fcc0 00bd
00000120: 8f5b 0d3c d2d3 843c 2a45 12bd c9f1 0fbc
00000130: 213e 88bb 8c7b 3a3c 142b 183d 343a 6ebc
00000140: 3a6a f5ba d125 833b cdb2 30bc 77ec 3e3d
00000150: 6b7d a0bc 376b 253b e378 6c3c ed02 a2bb
00000160: 45d1 65bc 31b3 113d 25dc b73a 18db 33bc
00000170: c275 afba d01f 19bd e861 b4bc fa67 a33c
00000180: 185b 573c 05ab 14ba 39f9 a03b 31df 53bd
00000190: bb02 19bd 9399 e5bc 1722 2a3b 5834 d6ba
000001a0: 4a73 503c 0276 38bc 7c1d 363c c557 d03c
000001b0: 86b7 efbb b524 b2bc 6cee 27bc a385 cd3b
000001c0: 9bca 383b b8fa bfbc c52b 1bbc b735 273d
000001d0: 8e97 38bd c352 a5bb 3c83 2f3c 8a6c 943b
000001e0: 5565 863b 2c25 a1bb ce37 12bc 1d3b 403c
000001f0: 0a45 123d 24f5 43bd b5d8 e13c 4309 ebbc
00000200: b2a9 ac3c 616d eabb 25bb 3c3d 6493 263c
00000210: aaca bbbc 6492 15bd 9fd9 bebb 8615 45bc
00000220: 116b 093b c889 e0bc e27c 8f3c 1f63 943c
00000230: 05f3 80bc 1789 023d e70a aa3b fa48 a7bc
00000240: 81a9 cfbc 72e1 47bc 443e 4d3c 73d1 89bb
00000250: 2212 10bd ca8a 633c d237 c03b 0df1 163d
00000260: 519a af3c 45a2 253d 751b 123c b272 e83b
00000270: 746c cebc 80ee d5bc 6a64 a03b d283 87bc
00000280: b719 0d3c 0c69 d0bb 24c4 263c 2cd9 28bb
00000290: 1802 04bd 46cc 2b3d 2adc 6e3d 10fb 53bb
000002a0: c813 d63c a1f5 6e3a 1d37 b83c 2ad8 10bd
000002b0: 19bd b5bc 89b4 f83c 5f22 f93c 3a2c 6d3c
000002c0: 6153 9fbb 7f68 df3b 3a84 6c3c ca0e 23bd
000002d0: bf7d 18bd b323 b339 d239 90bb 2689 0d3c
000002e0: c7d2 fabc 138f dd3b 290b 9f3a 7298 f3bb
000002f0: 22ec af3b 0870 bd39 6b29 c6bc 7fa6 ad3b
00000300: 1d76 ee3c c79d 44bc 430d f1bc d1f5 df3c
00000310: 36b9 963b 50a1 48bb 323a 73bc 9c26 9ebc
00000320: 132c cd3b af36 12bd 1edf c7bc 69fd c1bb
00000330: 269d c6bc c173 0dbd e36e b93b e1ab a23c
00000340: bfc9 e1bc 88e6 59bc f13e e4bc 8107 b23c
00000350: ff5f 86bc 1dc8 0abd 43a2 96bc ebdf 3a3c
00000360: 58c6 2cbb b388 1b3b e1b5 ff3b 87b9 cdbc
00000370: d42a c7bc e664 aebc c1a7 1f3c 816e 14bd
00000380: 8b22 e5bc f1c8 52bc 4372 ce3c 1acd 043d
00000390: 569e cc3c 8b16 0e3d 473a 9d3c 5e3f 3cbc
000003a0: a3d2 9abb 6415 93bc 2046 89bc d60f f03b
000003b0: 4b61 653c 83f4 f83c a51a b0b7 0bd4 933c
000003c0: a1e1 96bb 933d 0bbd 9e20 12bc 0a7d 503c
000003d0: 3a08 4b3c dcf7 12bd 22fd d3bb f6e5 963c
000003e0: a4bd 21bb 7d5b 883c e578 c73c 81ce e1bc
000003f0: f24f f13c ca2f 37bd cc9c 083b 0b3e 7cbc
0.0070256866 0.036090843 0.0038995417 0.026616426 -0.007946514 0.0103916265 -0.018379735 -0.010460455
-0.007001614 0.0048098066 0.011580729 0.018659715 -0.014892219 -0.02162843 -0.016029034 -0.04206943
-0.023465035 -0.02607932 0.018067967 -0.023397 0.022828078 -0.0130797895 0.0052265236 -0.008774846
-0.036695816 0.023064105 -0.02785883 0.012893226 -0.016059306 0.0053704055 -0.023163598 -0.0019088913
-0.029588731 0.016379213 0.026539655 -0.010114357 -0.0065278467 -0.02380913 0.012577202 0.018724864
0.0042321268 -0.016820436 -0.02679165 -0.006225565 0.0045628585 0.018059546 0.018770719 0.04070599
-0.0031316527 -0.0066460855 -0.009485881 0.014750767 -0.0037686878 0.021344004 0.0054462636 -0.018878855
0.005868009 -0.0036299382 0.00213607 0.0020668139 -0.030275255 0.008961163 -0.018322436 -0.00042252394
0.04349328 -0.0013031603 0.014808187 0.010088162 -0.03355552 0.015812755 -0.011433704 -0.031434044
0.008627786 0.016214285 -0.03571049 -0.008785673 -0.004157797 0.011381995 0.037150458 -0.014540244
-0.0018723675 0.004002311 -0.010784817 0.04661223 -0.019591054 0.0025240907 0.0144331185 -0.0049441964
-0.0140269445 0.03557128 0.00140274 -0.010977529 -0.0013386535 -0.037383854 -0.022019342 0.01994704
0.013144277 -0.0005671236 0.004912522 -0.051726524 -0.03735612 -0.028027331 0.002596026 -0.0016342504
0.0127228 -0.011258604 0.011115428 0.025432477 -0.007315579 -0.021746019 -0.010249715 0.0062720343
0.0028196934 -0.023434982 -0.009470885 0.04082271 -0.04506641 -0.0050452664 0.010712441 0.0045295404
0.004101435 -0.0049177613 -0.008924438 0.011732844 0.035710372 -0.047841206 0.027569154 -0.02869094
0.02107701 -0.0071541523 0.046076912 0.010166977 -0.022923786 -0.036516562 -0.0058242823 -0.012029057
0.0020968358 -0.02740945 0.017515603 0.01811367 -0.01574088 0.03186902 0.005189288 -0.02042054
-0.02534938 -0.012199746 0.012527052 -0.0042058765 -0.035173543 0.01388807 0.0058660293 0.036850978
0.021435888 0.040437955 0.008917679 0.007093751 -0.025198199 -0.026114702 0.004894783 -0.016542349
0.008612088 -0.006360179 0.0101785995 -0.002576421 -0.03222856 0.041942857 0.058315434 -0.003234569
0.02613248 0.0009115581 0.022487218 -0.0353624 -0.022184895 0.030359523 0.030411897 0.014475876
-0.0048622345 0.006817877 0.014435822 -0.039809026 -0.037229296 0.00034168139 -0.004401424 0.008638656
-0.030618085 0.0067614405 0.0012134063 -0.0074339444 0.0053687254 0.0003613236 -0.024189672 0.005299389
0.029109055 -0.012000508 -0.029425269 0.027338894 0.0045997156 -0.0030613728 -0.014845418 -0.01930552
0.0062613576 -0.03569668 -0.024398383 -0.0059201014 -0.024244856 -0.03453422 0.0056589707 0.019857349
-0.02756202 -0.013299592 -0.027862044 0.021732094 -0.016403196 -0.03388225 -0.01838792 0.011405925
-0.002636334 0.0023732602 0.007803664 -0.02511288 -0.024312414 -0.021288346 0.0097445855 -0.036238197
-0.027970573 -0.012865291 0.025200969 0.032422163 0.024977844 0.034689467 0.019192828 -0.011489717
-0.004724817 -0.017954536 -0.016757071 0.0073261065 0.014000247 0.03039003 -2.0993242e-05 0.018045446
-0.004604534 -0.03399427 -0.008918909 0.012725124 0.012392098 -0.03588091 -0.0064693848 0.0184202
-0.0024679685 0.016645188 0.02434964 -0.027564289 0.029457066 -0.04472331 0.0020845411 -0.015395652

decoder.3.conv.conv.bias f4 [40]
00000000: 5132 bfbc a7d9 353c b30f b0ba 4112 463c
00000010: 423d a43c c2cc b8bc b87a 67bb d0e1 533c
00000020: 628e 673c e268 c8bc 1c9d 3f3b 6ca9 6ebc
00000030: 0be6 1dbd f1f3 3a3c 7af1 dc3b aeb6 b3bb
00000040: 2bad 59bd 1e2c ddbb 2706 703c 34f0 58bb
00000050: 6c79 cabb 62ce 54bd 05f2 5b3b 1ed2 c4bc
00000060: a7b0 9bbc bad3 a03c 6e51 c239 e497 b3bc
00000070: b84f c3bc c922 8bbc b930 62bc 0581 a7bc
00000080: 82d9 c1bc 3181 a7bb 416b 93bc 8b37 83bc
00000090: 0f12 cbbc 4dd8 293c d6a8 12bb 6677 183c
-0.023339422 0.011099256 -0.0013432413 0.012089313 0.020048741 -0.022558574 -0.0035320949 0.012932256
0.014133068 -0.024464075 0.0029237932 -0.0145667605 -0.038549464 0.011410699 0.0067426534 -0.0054844236
-0.05314366 -0.006749644 0.014649904 -0.0033102157 -0.0061790254 -0.051954634 0.0033561003 -0.024025973
-0.019005133 0.01963221 0.00037063233 -0.021923013 -0.023841724 -0.01698436 -0.013805562 -0.020447263
-0.023663286 -0.0051118364 -0.017995479 -0.016017696 -0.024788884 0.0103665115 -0.0022378466 0.009305811

decoder.3.nonlin.total_ops f8 [1]
00000000: 0000 0000 0000 0000
0.0

decoder.3.nonlin.total_params f8 [1]
00000000: 0000 0000 0000 0000
0.0

decoder.4.total_ops f8 [1]
00000000: 0000 0000 0000 0000
0.0

decoder.4.total_params f8 [1]
00000000: 0000 0000 0000 0000
0.0

decoder.4.conv.total_ops f8 [1]
00000000: 0000 0000 0000 0000
0.0

decoder.4.conv.total_params f8 [1]
00000000: 0000 0000 0000 0000
0.0

decoder.4.conv.pad.total_ops f8 [1]
00000000: 0000 0000 0000 0000
0.0

decoder.4.conv.pad.total_params f8 [1]
00000000: 0000 0000 0000 0000
0.0

decoder.4.conv.conv.weight f4 [24, 40, 3, 3]
00000000: b904 393c d0c1 8fbc 65dc 54bc ef48 333a
00000010: fd88 70bd ed21 31bc 4bf2 0fbd e5b8 b8bc
00000020: 3f8a dfbc 7797 8f3c adae 08bd 8536 cabc
00000030: c040 c7bb f8bd 4c3c 6f20 87bc 9d77 c13c
00000040: 51e7 a5bc 5a64 19bb f66d b53c 162b b13b
00000050: efef 8c3b a508 28bd 97d3 b83b 4acb 4fbb
00000060: b3f5 efbc ccba a7bc c442 6d3c a386 56bc
00000070: 6d21 05bd 1614 87bd c8bb 3abc 93f3 71bb
00000080: 9cd6 d53c e3ee 35bd f53b 32bb fa5b 99bc
00000090: 1382 1b3d c55f 1f3d 2d07 2d3d 9f0c 3c3d
000000a0: 372f b73d 6b49 e73c d77a 3fbd 263b ca3c
000000b0: 5b7b 1c3c ab4e ea3a 0ef7 693b f936 b83c
000000c0: 58cd 7e3c 8a13 84bc 4e4f 4b3d 2689 b23c
000000d0: 4f74 d33c cde4 f23c 7033 cd3b 1f8f dc3b
000000e0: 3631 e33a bda1 2e3c 6531 313d f345 cbbc
000000f0: 9258 d1bc 6a00 cb3c c4e4 b0bc c242 773c
00000100: d3a6 d5bc 387c ee3b 0ba5 113c be8e 4fbc
00000110: d82e 03bc f76b c43c 5536 203b 71d5 96bb
00000120: 76f0 98bc 48cb 16bd a2c6 d13c c64e 833c
00000130: a11a 153b 35bc dd3b 8539 97bb 959c 89bc
00000140: 4719 083d b759 0d3c dc61 9dbc 0910 40bc
00000150: 7fbd 2d3b 7701 c9bd 34d9 2bbc 716e 44bc
00000160: 5acc 02bd ce83 18bd 2c31 ca3b 26d3 3b3c
00000170: 6e3a e23c 0c37 b1bc c150 a33c 0f93 a53c
00000180: 72dc d7bb 6816 30bc 2048 4bbc 922e ea3c
00000190: ac63 c239 46d4 a83c db51 0dbc 8574 1abd
000001a0: 76d5 cfbc 2d00 f4bb 5f49 fdbc e176 653a
000001b0: 079a 2a3d 5fe4 cdbb ea61 c93c 3b6b 2d3c
000001c0: 7bd0 873c 317e b6bc 6cfa cbbc 3796 66bc
000001d0: 2904 c83c 66de e8bb ac8e 29bd 628b 973c
000001e0: 8de4 193c 1c02 433c 756f afbc 7220 28bc
000001f0: 1f27 243b eba2 bdbc 9f85 11bd 414c 81bc
00000200: 0b96 84bc 801c fe3c 6c84 b83c 8f99 bb3c
00000210: 2f8f a9bb 7aba de3c dc7b b83c aca6 3dbc
00000220: c457 fb3a 8021 94bc 8b4b 75bc 25e5 253a
00000230: 3597 cb3c a41b bebb 3cdf 893b 8e19 35bd
00000240: 2cf9 0ebc 5bed 8b3c 63d1 feb9 8c0c 203c
00000250: ee2c a43c a8ac b13a 0e26 803d 5d07 bdbc
00000260: c521 a8bc a220 e43c 52ea f3bc 1db1 003d
00000270: cf29 b43c 51ce 803c 6942 7ebc 3b7d f23c
00000280: c74d 603c 99ce f9ba 25eb 013d 63ff 3c3c
00000290: 2f16 d33c 448f e43b 3294 45bc 58cc 2ebc
000002a0: 8826 913c 606b 92bc 4b9a c33c f0ef 933c
000002b0: fe59 9fbb 0e46 1dbc 31af c0bc 3fca 0fbd
000002c0: 2dfa 313c 3829 b8bc 5187 833c 6999 043d
000002d0: 08ea 2ebd 13e9 79bc e825 473c 5a3a 9d3c
000002e0: 13e1 8c3c 3ed2 a3bc fb79 c1b9 7955 11bd
000002f0: 987e d6bc 4849 74bc 54f4 4ebc 6297 443c
00000300: 7d52 9ebb 2e48 003c 0302 543c 242b 89bc
00000310: ee16 0d3c 3bd6 7a3c 5564 c1bc 858f a4bc
00000320: e7e5 fd3c 17b3 f7bc 47de d0bb c15e 9f3c
00000330: 66a0 a9bc 1192 0fbc 2288 69bd 7cf8 2b3c
00000340: 6b47 0b3d fcf9 8fbb e9a5 b13c 5bd7 f8ba
00000350: 4380 9fbc 9f11 123c 2365 033c f9ea 85bc
00000360: d2ed 3e3b 7f3b df3c b03c ca3c e120 2bbc
00000370: 0f93 0f3c d8c0 f13b 4f33 333c 549d a53c
00000380: 437b fc3c 62d9 c9bb bc98 e3bc 5306 58bb
00000390: 2aef f9bc 2d66 883c 5948 d7bc e26c 98bc
000003a0: f027 123d b28f 443c 5eab d63c a16d bebc
000003b0: 0144 e73c a167 543b 57d2 6ebc aa41 20bc
000003c0: 0267 e73c 04e7 643d f152 5e3d 7e75 44bc
000003d0: 10bc 0fbc a020 01bd 2e3a d8bc df25 94bc
000003e0: 15f3 c5bb 97b2 82bc 6c7c 143c 0ad4 c03c
000003f0: 0eed 83bb c4cc fb3a 98e3 5f3c 8848 bcbc
0.01129263 -0.017548472 -0.012991999 0.0006839176 -0.058724392 -0.010811311 -0.035143178 -0.022549102
-0.0272876 0.017528279 -0.03336971 -0.0246842 -0.006080717 0.012496464 -0.016494958 0.023616606
-0.020251902 -0.0023405761 0.02214716 0.0054067476 0.0043010633 -0.04102387 0.005640458 -0.0031706863
-0.029291963 -0.020474814 0.01448125 -0.013093623 -0.03250258 -0.06595628 -0.01139731 -0.0036918863
0.02610331 -0.044417273 -0.0027196382 -0.018720616 0.037965845 0.038909692 0.04224317 0.045910474
0.089445524 0.02823325 -0.04674801 0.024686407 0.009550895 0.0017876228 0.0035700235 0.02248715
0.015551887 -0.016122598 0.049636178 0.021793913 0.025812296 0.029650116 0.0062622353 0.0067309286
0.0017333392 0.010658679 0.043259997 -0.024813628 -0.025554929 0.02478047 -0.021593459 0.0150916
-0.026080525 0.0072779916 0.008889447 -0.01266831 -0.008006774 0.023977263 0.0024446447 -0.004603081
-0.018669348 -0.036814958 0.02560741 0.016028773 0.0022751468 0.006766821 -0.004615011 -0.016798297
0.03322723 0.008627347 -0.019211702 -0.011722573 0.0026510654 -0.098147325 -0.010488797 -0.011989222
-0.031933166 -0.037235074 0.0061704125 0.011463916 0.027615752 -0.021632694 0.019935967 0.020211725
-0.0065875584 -0.01074753 -0.012407333 0.02858666 0.00037076825 0.020609032 -0.008625473 -0.037708778
-0.02537034 -0.00744631 -0.030918775 0.0008753371 0.0416508 -0.0062833275 0.024582822 0.010584648
0.016578903 -0.02227697 -0.024899684 -0.0140739 0.024416046 -0.00710659 -0.041395828 0.01849908
0.00939287 0.011902358 -0.021415452 -0.010261642 0.0025047732 -0.023148974 -0.03552782 -0.015783431
-0.016184827 0.03101945 0.022524081 0.02290037 -0.0051745395 0.027188528 0.022519998 -0.011575382
0.0019175936 -0.01808238 -0.014971624 0.00063283957 0.024852375 -0.005801635 0.00420752 -0.044213824
-0.008726399 0.017080953 -0.0004860266 0.009768616 0.020040955 0.0013555484 0.06257258 -0.0230748
-0.020523915 0.027847592 -0.029774819 0.03141891 0.021992592 0.01572338 -0.015518763 0.02960073
0.013690419 -0.0019058763 0.031718392 0.011535498 0.025767414 0.0069750864 -0.012059258 -0.0106688365
0.017718568 -0.017873466 0.023877284 0.018058747 -0.004863023 -0.009599222 -0.023521038 -0.035104986
0.010862869 -0.022480592 0.016055735 0.032372866 -0.04270366 -0.015253323 0.012155034 0.019192863
0.017197168 -0.019997712 -0.0003690271 -0.035481904 -0.026183411 -0.01491005 -0.012631495 0.011998983
-0.0048316107 0.007829709 0.012939933 -0.016744204 0.008611424 0.015309866 -0.023607412 -0.020087967
0.030993415 -0.030236764 -0.006374154 0.019454362 -0.020706367 -0.008762852 -0.057014592 0.010496255
0.034003656 -0.004393814 0.021685557 -0.0018985079 -0.01947034 0.008915334 0.008019718 -0.016347395
0.0029133451 0.02725005 0.024687141 -0.010444851 0.008763089 0.007377725 0.010937526 0.020216621
0.030820495 -0.0061599473 -0.02778279 -0.0032962754 -0.03050955 0.016650284 -0.026279615 -0.018606607
0.03568262 0.01199715 0.026204761 -0.023245635 0.028230669 0.00324104 -0.014576516 -0.0097812805
0.02824736 0.055884376 0.054278318 -0.011990903 -0.008772865 -0.031525254 -0.02639493 -0.018084465
-0.0060409405 -0.015954299 0.009062868 0.023538608 -0.004026062 0.0019210805 0.013665102 -0.022983804

decoder.4.conv.conv.bias f4 [24]
00000000: 0fb4 8abc 0043 93bc 27df 86bc 47e9 97bc
00000010: 2d03 84bc a28c 86bc 5201 0fbd 6fa0 89bc
00000020: f1c9 4fbc 0f9e dd3a b957 083c ec10 f43b
00000030: 732f b9bc 0347 0c3c 4c87 9dbc c670 3c3c
00000040: b5a3 b13c e8a5 073c 5b41 d8bb c1f2 fb3c
00000050: c079 e93b 2f65 c9bb 1a62 a1bc 1754 583c
-0.016931562 -0.017976284 -0.01646383 -0.018543852 -0.016114796 -0.01642448 -0.03491337 -0.016800134
-0.012682424 0.0016908067 0.008321696 0.0074483063 -0.022605633 0.008561852 -0.019229554 0.011501497
0.021684507 0.008279301 -0.006599588 0.030755403 0.0071251094 -0.006146095 -0.019700099 0.013203642

decoder.4.nonlin.total_ops f8 [1]
00000000: 0000 0000 0000 0000
0.0

decoder.4.nonlin.total_params f8 [1]
00000000: 0000 0000 0000 0000
0.0

decoder.5.total_ops f8 [1]
00000000: 0000 0000 0000 0000
0.0

decoder.5.total_params f8 [1]
00000000: 0000 0000 0000 0000
0.0

decoder.5.conv.total_ops f8 [1]
00000000: 0000 0000 0000 0000
0.0

decoder.5.conv.total_params f8 [1]
00000000: 0000 0000 0000 0000
0.0

decoder.5.conv.pad.total_ops f8 [1]
00000000: 0000 0000 0000 0000
0.0

decoder.5.conv.pad.total_params f8 [1]
00000000: 0000 0000 0000 0000
0.0

decoder.5.conv.conv.weight f4 [24, 24, 3, 3]
00000000: 2a15 bc3b 3eec 0fbc 58d8 2d3b c10d 9b3b
00000010: 1e2e bd3c c615 27bd 85ea 51bc 7ed0 b6bc
00000020: c2b7 a13c b748 b13c 1a64 8cbc ec50 de3c
00000030: d49f 9d3c 8db2 7bbc 7e09 0e3c 5275 a9bc
00000040: bed7 86bb 8de3 e23c 3867 9b3c ed46 36bc
00000050: b656 f03c 103a 66ba 6749 3c3c 73de dd3b
00000060: 0ca9 7e3c 9a1a ce3c 48cd 833c 8f59 f23c
00000070: 5985 6f3a 8d07 c0bb f5fe e63c 0c92 57bc
00000080: 3939 c9bb 2243 83bc ba0d 6b3c 1d6e d53c
00000090: 8c43 1dbc a95a 103b 64cd 95bc 55a1 133c
000000a0: 29a8 fe3b cfbd b0bc adaa 10bc bf45 ce3c
000000b0: 805b 363c a1d8 103d cddb 093a f897 2ebc
000000c0: 9570 d53c c872 3a3c 6a8c 173c c5da 843d
000000d0: d98b 643b 6c5b b23c 229f 363b 0c54 433c
000000e0: f078 d23c 25b1 0fbc f78d 3bbc f821 e93c
000000f0: 0725 0ebd e16a 97bb aa3b 38bc efcb f13c
00000100: a0a5 573a 759a b9bb a49b 0c3c 3a13 6bbc
00000110: ab2b 8b3c 2a15 3a3d 5769 873c 558f 943b
00000120: b02c e7bc a463 a83c d734 ad3c a956 2fbd
00000130: 0a13 05bc 98db 00bd 4445 aabc 7808 1cbb
00000140: d4c1 71bc c526 743c 8586 4dbb f0bc 8d3c
00000150: ff69 b03c 184e 32bc 5b87 32bc 9989 e13c
00000160: 95b7 303c c51b a73b 9394 bdba aa0b a7bc
00000170: fb7f 22bc 2424 19bd 0c3a 0bbb d810 e1ba
00000180: 838b 0ebb 748f febc ddde 4e3c f9ad f13b
00000190: 300d bbbb 5cc1 ccbc 4015 3bbd 962d f13c
000001a0: fd80 b6bb 3343 fbbc 9b0d 7dbc 9208 b3bb
000001b0: 06a6 0f3d 10fe 0fbc 52c4 ae3c 79b3 f83c
000001c0: aa01 c03c f5c4 b8bb 5471 ce3c d75b ff3a
000001d0: 6392 703d 4684 7abc 1d00 8d3a 7d5d 46bc
000001e0: 035e fd3b 4155 d73c a017 433c f396 3e3b
000001f0: df5b efbc f428 443b 25bd 04bd ccc9 03bd
00000200: e7a2 fbbc 0416 9cbc 7e9d b23c d89b 293c
00000210: 5c50 7a3c 433d 09bc e9b7 2c3d 9646 f8ba
00000220: 12a5 68bc 0443 cf3c d62c 8cbc debd 003c
00000230: 6760 04bc e7ef 89ba 4bd2 b7bc 6b9a b2bb
00000240: a5c8 3abc 73a8 283d 4fb5 133c 8fc4 c4bb
00000250: 4e82 89bc 28c2 8dbc 9482 c63c 856b 993c
00000260: bac9 eabc ad53 3ebc c1ab 52bc 2c20 c3bc
00000270: bda7 643b 0e4e 9d3c 8587 16bc f5a0 043d
00000280: 4dba 2e3d 3a88 0f3b 611a 67bd 73ab 23bc
00000290: 8544 6abc 130f 85bb 529d 20bd 57c5 a53c
000002a0: 20ec 1cba 7f06 64bb 8d09 8ebc 7dca ce3a
000002b0: 53aa 503c 9faa 28bc dba2 e93a 2f00 b63b
000002c0: 29da 8dbc 48f7 45ba 47f2 dbbc 94eb 6b3c
000002d0: 2d67 8d3c 63cd debc 0eec be3c aef8 0c3d
000002e0: b0db 59bd ce0a 69bd 13dd f4bb ce8c 2abc
000002f0: d28b 25bc 173d ddbb 262d 08bc c3c6 bb3c
00000300: 8a80 fdbb 58ec 993c b5ec 3c3b ab1d a7bc
00000310: b05e f6bc fda7 183d 8646 cc3b 35aa a9bc
00000320: c475 c43c 5df9 ff3c 7dc4 8d3c 6e77 313c
00000330: 07cb 6d3c 905c ce3c a9ea 7a3c 74fc 0b3c
00000340: e2e8 0fbd 0ddb 04bd 3b2f c1bc 4e0d 94bc
00000350: 3988 bd3b ce49 40bd a04c 95bc 2097 833b
00000360: 5a40 1c3c 5561 eebc 911f e9bc c5e5 a9bc
00000370: 6121 14bd 6a89 823b 18a7 8c3c 46ac f83b
00000380: 0cce b93b 6dd8 093c 182e be3c c191 6c3c
00000390: 9506 8f3c 4251 383c baf7 62bb ab84 7fbc
000003a0: 0ac8 953c 67f7 ed3c 2ac3 86bd 26f2 87bd
000003b0: 5922 eebc 461f e1bc 128b 44bd b908 373b
000003c0: dcc7 1abd 7b19 23bc 6611 42bc b2e9 7ebc
000003d0: 47e6 b53a c9bf dcba ff00 53bd 9dd1 03bc
000003e0: 1b3a 7b3c 5ec7 163c 4619 153b 624a 78bb
000003f0: 5971 893b f695 f73c 62e4 b2bb dd6f d4bb
0.0057398276 -0.008784352 0.0026526656 0.004731864 0.02309328 -0.04079225 -0.0128122615 -0.022316214
0.019740943 0.021641118 -0.017137576 0.027138196 0.019241251 -0.015362394 0.008669255 -0.020685825
-0.004115074 0.027696395 0.018970117 -0.011125308 0.029338222 -0.00087824557 0.01149211 0.006770903
0.015543234 0.025159169 0.016089097 0.02958372 0.0009136997 -0.005860275 0.028197745 -0.013157379
-0.0061408547 -0.016023222 0.014346534 0.026053483 -0.009598624 0.0022026694 -0.018286414 0.0090106325
0.007771511 -0.021574883 -0.008829755 0.025179742 0.011130214 0.035362843 0.0005258888 -0.010656349
0.02605466 0.011379905 0.009249786 0.064870395 0.0034873395 0.021772109 0.0027865847 0.011921894
0.025692433 -0.008770262 -0.011447421 0.02845858 -0.03470328 -0.0046208953 -0.011244694 0.029516188
0.0008226279 -0.0056641647 0.0085820295 -0.014347846 0.016988596 0.04543034 0.016529722 0.004533688
-0.02821955 0.020555325 0.02114336 -0.042807255 -0.008122215 -0.03145942 -0.020784982 -0.0023808759
-0.014755685 0.0149018215 -0.0031360697 0.017302006 0.021534918 -0.010882877 -0.010896529 0.027531432
0.010785957 0.005099746 -0.0014463834 -0.020391304 -0.009918208 -0.037387982 -0.0021244315 -0.0017171158
-0.0021750636 -0.031074263 0.012626377 0.0073754755 -0.005708359 -0.024994545 -0.045674562 0.029440682
-0.005569576 -0.030671692 -0.015445138 -0.005463668 0.03507044 -0.008788601 0.021333847 0.030359017
0.023438293 -0.0056387135 0.025200523 0.0019482326 0.058733355 -0.0152903255 0.001075748 -0.01210725
0.0077321543 0.02628577 0.011907488 0.0029081672 -0.029218612 0.0029931637 -0.032406945 -0.03217487
-0.030717326 -0.019053467 0.021803614 0.010352097 0.015277948 -0.008376422 0.042167578 -0.0018941935
-0.014199512 0.02530051 -0.017111223 0.007857768 -0.008079625 -0.0010523767 -0.022439143 -0.005450537
-0.011400376 0.04117627 0.009015395 -0.006004877 -0.016785767 -0.017304495 0.024232186 0.018728027
-0.028660644 -0.01161663 -0.012858332 -0.023819052 0.003489002 0.019202258 -0.009187584 0.032380063
0.04265814 0.0021901266 -0.05642164 -0.009989607 -0.014298563 -0.004060635 -0.039212532 0.0202357
-0.0005986113 -0.003479391 -0.017338539 0.0015776899 0.012735921 -0.0102945855 0.0017825024 0.005554221
-0.017315941 -0.00075518014 -0.026848925 0.014399428 0.017261112 -0.027197545 0.023305919 0.034416847
-0.053188026 -0.05689507 -0.007472643 -0.010409547 -0.010104137 -0.0067516672 -0.0083115455 0.022921925
-0.0077362703 0.018789455 0.0028827612 -0.020399889 -0.030074447 0.03726958 0.006233993 -0.020711044
0.023981936 0.031246835 0.017305607 0.010831697 0.0145137375 0.025190622 0.015314736 0.008544076
-0.035134204 -0.032435466 -0.023582092 -0.01807275 0.0057840613 -0.046945386 -0.018225014 0.0040158182
0.009536827 -0.029099146 -0.028457435 -0.020739445 -0.036164645 0.003983666 0.01716952 0.007588896
0.0056703147 0.008413416 0.023215339 0.014439047 0.017459193 0.011249842 -0.003463252 -0.015595595
0.018283863 0.029048635 -0.06580193 -0.06637983 -0.029069113 -0.027480733 -0.04798419 0.0027928783
-0.037788257 -0.0099548055 -0.011844968 -0.015558647 0.0013877832 -0.0016841824 -0.05151462 -0.008045581
0.015333678 0.009202806 0.002275066 -0.0037886132 0.0041944203 0.030222874 -0.0054593543 -0.0064830617

decoder.5.conv.conv.bias f4 [24]
00000000: 9585 c9bc bb55 93bd 4fa5 773c 0fe8 38bc
00000010: ca49 833c f9df 7d3c 25e2 a1bc ace4 c1bc
00000020: 3a27 b8bc 1dd1 9bbc f094 ba3b 5952 8e3c
00000030: bac7 9cbd 25a8 c2bc 38b6 b6bc 4586 833c
00000040: 7fae ce3b e087 803c d99f bfbc cd2c d3bc
00000050: fe66 2bbd 0843 bfbc 6b92 c1bb 377b 763c
-0.02459983 -0.07194086 0.015115096 -0.011285796 0.016026396 0.015495294 -0.019761154 -0.02366861
-0.022479642 -0.019020611 0.0056940243 0.01737325 -0.07655282 -0.023761818 -0.022303686 0.016055236
0.0063074226 0.01568979 -0.023391651 -0.025778199 -0.041846268 -0.023347393 -0.005907347 0.015044025

decoder.5.nonlin.total_ops f8 [1]
00000000: 0000 0000 0000 0000
0.0

decoder.5.nonlin.total_params f8 [1]
00000000: 0000 0000 0000 0000
0.0

decoder.6.total_ops f8 [1]
00000000: 0000 0000 0000 0000
0.0

decoder.6.total_params f8 [1]
00000000: 0000 0000 0000 0000
0.0

decoder.6.pad.total_ops f8 [1]
00000000: 0000 0000 0000 0000
0.0

decoder.6.pad.total_params f8 [1]
00000000: 0000 0000 0000 0000
0.0
