src/depth_est/checkpoints/base/depth.pth (torch, 913938 bytes, 15 tensors)

decoder.0.conv.conv.weight f4 [64, 128, 3, 3]
000000 09 3d 08 bb 06 23 78 bd ab 27 9d 3b 5f 43 08 3c
       -0.0020788333 -0.060580276 0.0047959886 0.008316844
000010 c8 5a c1 bb aa 07 06 3c 2b d2 fb 3c 95 e6 81 3c
       -0.0059007145 0.008180538 0.030739864 0.01585702
000020 b6 1b 6e bb 9e 9c 63 3c 56 8c 8f 3c cc 7e e8 3b
       -0.0036332435 0.013892321 0.017522972 0.0070951935
000030 eb 07 ea ba 7a 6e 39 bc f4 4b c7 3c 00 a7 24 3d
       -0.0017855143 -0.011317844 0.02432821 0.040198326
000040 7d 3a bd 3c 3c c1 a8 3c 3d 07 c4 bc 6b b6 04 bd
       0.023099178 0.020599954 -0.023929233 -0.03240053
000050 fa ad a9 39 0b 42 a4 3c f2 a9 0e 3d a5 19 2e 3b
       0.00032363815 0.020051023 0.03483004 0.0026565578
000060 1b 58 b3 bc f2 ea 58 3d d3 e0 82 3c 9a 2e df 3b
       -0.021892598 0.052958436 0.015976345 0.0068109753
000070 33 f7 8d bc 2b 90 de 3b 88 40 ca bb a1 15 f2 3b
       -0.017329788 0.0067920885 -0.0061722435 0.0073878323
000080 2d ba 0b bc 4d 3b 98 3a e9 0d 3c 3d be 05 90 bc
       -0.0085282745 0.0011614353 0.045911703 -0.017580863
000090 12 db ac bc 82 06 e5 3b 9a f5 b4 bc 45 76 95 bb
       -0.021100555 0.006989301 -0.022089768 -0.004561218
0000a0 ab 73 4e bc 16 bc 53 bc bc e0 8e bc b3 5b f4 bb
       -0.01260082 -0.012923261 -0.017441146 -0.0074572205
0000b0 9b 5d 1a bd 8a b6 3d 3c 0c 42 13 bb 3c 9d d0 3c
       -0.037686925 0.011579165 -0.0022469787 0.0254656
0000c0 ad ef e4 3c 18 50 2b 3c 59 e4 0f 3d 70 78 e7 bc
       0.027946318 0.010456108 0.03512988 -0.028255671
0000d0 32 af 07 bd 66 b4 22 bd a9 76 29 3c fc b9 49 bb
       -0.033126064 -0.039722823 0.010343232 -0.0030781021
0000e0 cc 49 10 3c b3 ad 76 bb 71 fe 1c 3c 1a cc 95 3c
       0.008806657 -0.0037640154 0.009582148 0.0182858
0000f0 28 7e 49 3c 60 8e 87 bc 73 7c 5a bb 22 5d 75 3c
       0.012298144 -0.016547382 -0.0033338338 0.014975818
000100 b6 12 5a 3c dc 7c 1e 3d ed f3 91 bb bf e5 2a 3d
       0.013310125 0.038693294 -0.004454127 0.04172301
000110 8a 91 e2 bb ba 42 28 bd 22 10 df bc 54 34 02 bd
       -0.0069143223 -0.04107926 -0.027229372 -0.031788185
000120 89 10 ae 3a de 59 3e 3c 26 f2 42 3c 0a b4 39 ba
       0.0013280074 0.011618106 0.011898553 -0.0007084018
000130 0f 8b cf 3c 5d 32 53 bc 01 2a da 3b 65 02 10 3d
       0.025334863 -0.0128904255 0.0066578393 0.035158534
000140 b5 a1 91 bb 40 34 08 3c b0 a8 c9 bc b3 ae 39 bc
       -0.004444326 0.008313239 -0.02461657 -0.011333155
000150 84 e9 80 bb 71 9e 01 bc 20 fe 2d bd ff 2d 8d 3c
       -0.003934087 -0.0079113105 -0.04247868 0.017233847
000160 17 44 1b bd fb 76 28 3c 79 0d b5 3c f2 86 19 3c
       -0.037906732 0.010282273 0.02210115 0.009370552
000170 c7 22 cf bb 45 5b ab 3b db 87 2f 3c 1c a3 74 bc
       -0.0063212845 0.005229386 0.010713543 -0.014931466
000180 2d cd d2 3b 5d 2d ff bc 25 7c bf 3c 15 9d b8 3c
       0.0064331503 -0.03114956 0.023374626 0.02253584
000190 fa 08 69 3d cd af 59 3c a5 e3 5d bd d5 2a a9 3c
       0.056893326 0.013286543 -0.054172177 0.020650307
0001a0 ce 8a 12 bd f1 05 a7 bc 18 30 9f bc 4b 55 b8 bc
       -0.035776906 -0.020388575 -0.019432113 -0.022501608
0001b0 0b bd 38 bc 0e 61 c4 3c 5e 88 51 3c 1d f9 2a 3c
       -0.01127554 0.02397206 0.01278886 0.01043537
0001c0 b9 69 2e 3d 48 ad 93 bc bf bc a9 bc dd 6f c5 bc
       0.042581294 -0.018026963 -0.020719884 -0.024101192
0001d0 a4 48 5f bb d0 f5 68 3b 83 da 4f bc 94 22 13 bc
       -0.0034070397 0.0035546906 -0.012686375 -0.008980412
0001e0 33 de ac bc b4 43 91 bd 32 46 fc bc 9f 4b 8e 3c
       -0.021102047 -0.070929915 -0.03079519 0.017370043
0001f0 68 85 e9 bb 8b fa bf 3c 0a 91 be bb 32 59 7d 3c
       -0.007126499 0.023434898 -0.00581563 0.01546316
000200 80 20 ee bc 9c 86 e0 bc aa c6 91 bc bb d4 af bc
       -0.029068232 -0.027407937 -0.017794926 -0.021463742
000210 65 ae 24 bd 81 3a 35 bd 6b 67 e5 bc 37 d2 bc bc
       -0.040205378 -0.044245247 -0.028003415 -0.023049457
000220 de c9 16 3c dc c5 86 bc a3 d6 67 ba c6 a2 fc bc
       0.009203402 -0.016451769 -0.0008843934 -0.030839335
000230 8f 1c f5 3b c9 46 06 3d fe 90 c0 3c d3 1e 05 3d
       0.007480211 0.03278235 0.023506638 0.0325001
000240 02 ff 4b 3c 13 dc 5d bc 54 54 79 bc 58 03 a6 ba
       0.012450935 -0.013541239 -0.015217859 -0.0012665791
000250 47 ff 21 3c 92 dd ca bb 2c 35 44 bd 5b e4 f0 bc
       0.009887523 -0.006190964 -0.04790227 -0.029405763
000260 96 ac 72 bd 7a 45 9f 3c 3e 67 b2 3d 23 c2 19 3d
       -0.059246622 0.019442309 0.08711098 0.03753866
000270 c9 79 f5 bc 4c 77 3d bc f5 20 1c bd 69 21 be bc
       -0.029965298 -0.011564087 -0.038117368 -0.02320929
000280 54 0e 22 bc 72 eb 2a bd 42 81 e2 3b c5 49 43 bc
       -0.009891111 -0.041728444 0.0069123814 -0.0119194435
000290 40 47 96 3c 73 bf 9e 3b 3b 54 f1 bc 8d 40 a4 bc
       0.018344522 0.0048446 -0.02945911 -0.020050311
0002a0 a8 29 c3 3b 12 52 50 bd 5d 9d 9a bc 84 e1 6a ba
       0.0059558935 -0.05085952 -0.018873865 -0.0008959996
0002b0 e4 c3 58 3c 6f 6e 45 3b 8b 9b c6 bc b5 d6 b3 3c
       0.013230298 0.0030125638 -0.02424409 0.021952966
0002c0 99 6f f2 bc 79 1d c9 3c 3e 17 62 3b b5 2d 8d bc
       -0.02959423 0.024550186 0.0034498717 -0.017233709
0002d0 3b c8 a7 3a b2 2f a7 3c 78 d6 01 3b e6 d8 4e bd
       0.0012800762 0.020408485 0.0019811671 -0.05049982
0002e0 61 81 c6 bc ec 90 7a bd 7f 54 8f bc 1f 03 1c bc
       -0.024231615 -0.061173365 -0.017496346 -0.0095222285
0002f0 39 0a ab bc f4 30 a8 3b c6 12 e2 3c 07 11 b8 3b
       -0.020878898 0.005132789 0.027596842 0.005617264
000300 4f f8 cb 3b 5d ca fb 3b b5 95 90 39 d7 3b c3 3c
       0.006224669 0.0076840357 0.0002757736 0.023832245
000310 73 00 6b 3d a4 98 a4 3c 7c 90 c4 3b 69 89 93 3c
       0.057373475 0.020092316 0.005998669 0.018009858
000320 f7 85 16 bd 4e 14 79 bc 95 b5 29 3d eb 3b 40 3c
       -0.036748853 -0.015202595 0.041432936 0.011733036
000330 af 9b 29 bc 66 9d 68 bd a5 c7 2f bd d9 e2 88 3c
       -0.010352059 -0.05679073 -0.042915005 0.016709732
000340 ee ed 53 3c 23 53 b4 ba 61 f8 db 3b 4b 0f 51 bc
       0.012935145 -0.0013757687 0.0067129587 -0.012759994
000350 67 80 98 bc fa 7e 83 bc 7c d9 91 bc a8 bb 56 bc
       -0.018615915 -0.016051758 -0.0178039 -0.013106264
000360 7e 1c 84 bc d6 1d c4 bd 05 8e 0a bd bd 55 d5 3b
       -0.016126867 -0.09576003 -0.033826847 0.006510465
000370 f3 a6 80 bc ca 1e d1 bc 34 79 cc 3b 83 dc 49 bd
       -0.015704608 -0.025527377 0.0062400345 -0.049282562
000380 f9 52 4c 3c 14 77 6e bc 75 b3 48 bc dc 67 0c 3a
       0.012470954 -0.014554758 -0.012249817 0.00053560524
000390 43 3d af ba 0a ae 6f bc eb d8 4a 3c c0 61 99 bc
       -0.0013369698 -0.0146288965 0.012380819 -0.018723369
0003a0 37 60 8f 3b cb 93 1b 3a 7c 14 63 3c 48 cf 8e 3d
       0.0043754834 0.00059348036 0.013859864 0.069731295
0003b0 23 26 1e 3c 8c 3e 2c bd 88 06 52 3d 88 13 c1 3c
       0.009652647 -0.042051837 0.05127576 0.023568884
0003c0 93 4d 81 bc 77 6d a5 3b 31 de 8f bc bc 9f 12 bd
       -0.01578406 0.0050484496 -0.017562004 -0.035796866
0003d0 a3 80 bf bc 4a bb 8c bd f9 84 0f 3b b2 4b fb bc
       -0.023376768 -0.0687166 0.0021899326 -0.030675743
0003e0 e4 d9 f6 bc 5e 3e 63 3d 43 a0 b6 3c 65 64 e9 3c
       -0.030133195 0.0554794 0.022293216 0.028490255
0003f0 6b 1d 83 bb 2b 45 92 bc d9 5b c3 bb 61 31 c1 bc
       -0.0040013096 -0.017855247 -0.005961877 -0.023583116

decoder.0.conv.conv.bias f4 [64]
000000 c5 b7 4c bb de 00 85 bc b2 bd b1 3c 32 4f c4 3c
       -0.0031237465 -0.016235765 0.0216969 0.023963545
000010 71 66 f6 bb 85 d2 42 3c 0f 32 ce bc 0c f6 3d bc
       -0.007519536 0.011891012 -0.025170354 -0.011594307
000020 6c 22 6e bc f7 f5 84 bd 1b 3b 82 bc 6e 8b ca 3b
       -0.014534574 -0.064922266 -0.015897324 0.006181172
000030 7d f0 9d bc 5e 54 91 3b bf 27 cd 3a d1 a6 38 bd
       -0.019279713 0.004435106 0.0015652104 -0.045080964
000040 23 71 07 bd 75 7e 68 bc 7b a6 1c 3b a7 e9 cc 3b
       -0.03306688 -0.014190306 0.002390294 0.0062534395
000050 b9 fb 19 bd 56 e5 db bc 52 46 af bb d6 4a 97 bb
       -0.037593577 -0.026842754 -0.005348959 -0.0046170754
000060 63 e1 7a bb 7d 3a 96 3c 85 fd f1 bc dc 69 8c bc
       -0.0038281314 0.018338436 -0.029539833 -0.017140321
000070 3c 6e fb bb 3b 63 09 3d 26 1e 72 3c 81 1b 8c bc
       -0.007673053 0.0335419 0.014777696 -0.017102959
000080 a6 29 64 bc 61 fb ac 3c f8 3b 26 bd c3 5d 00 bd
       -0.013925945 0.02111596 -0.040584534 -0.03133942
000090 45 0d 72 bb ae 1b 8e 3c 09 1a 86 3c b4 fd d9 3c
       -0.0036934179 0.017347183 0.016369836 0.026610233
0000a0 11 81 28 bc 4c 87 78 bc d5 ee af bc 05 b8 26 bd
       -0.010284678 -0.015168976 -0.021476189 -0.04070284
0000b0 b8 2b 93 bc c0 34 38 bc 30 29 0d 3c ad 2f 8d bd
       -0.017965183 -0.011243045 0.008615777 -0.06893859
0000c0 c1 75 3d bd ad 89 11 bc 12 e2 84 bc a4 c8 20 3a
       -0.046254877 -0.008882922 -0.01622108 0.00061334134
0000d0 b0 0a 05 3d f1 d1 02 bd fb 16 de 3c 2b 30 a8 bc
       0.032480896 -0.031938497 0.027110567 -0.02053078
0000e0 32 63 bc bc cd 4c bd bc 78 4b 4f 3c 5f 3c b3 3b
       -0.022996519 -0.02310791 0.0126522705 0.0054698433
0000f0 cc 0f b9 bc 9c fb d4 3c 2c 03 88 bc d2 ff 99 bc
       -0.02259054 0.025998883 -0.016603075 -0.018798742

decoder.1.conv.conv.weight f4 [64, 144, 3, 3]
000000 dc c6 65 3b 73 d4 95 3b 20 88 cb bb 09 c8 0b bc
       0.0035061156 0.004572445 -0.0062112957 -0.008531579
000010 76 73 e5 3c 2e 6d 1b bc 3e f7 08 3c c5 3d ca bc
       0.028009158 -0.00948648 0.008359728 -0.024687657
000020 8b a5 f9 bc a9 53 41 bb 1c 91 92 3b fc 39 2f 3c
       -0.030474445 -0.0029499328 0.004472865 0.010694977
000030 16 e5 ce 3c 4e 0c 07 bd 10 5b 33 bc ec d4 e6 bb
       0.025255721 -0.03297072 -0.010947004 -0.0070444252
000040 60 93 ae bc c7 74 1b bd 92 a7 d9 bb 26 32 0c bc
       -0.021310508 -0.037953164 -0.0066422904 -0.008556878
000050 96 44 27 bd 51 fc 03 bb 61 34 5e 3c 8c 6c 55 3c
       -0.040836893 -0.0020139406 0.013562293 0.013026368
000060 db 32 03 bc 58 d1 5b bc 4a 75 d6 bb 54 4b 60 bc
       -0.00800773 -0.013416611 -0.0065447437 -0.013689835
000070 9c dd 02 3d d9 bc 40 bd a8 23 12 bc 84 f9 21 ba
       0.031949624 -0.0470551 -0.008919634 -0.00061788433
000080 59 f3 ff bc b6 0e 3d bc 6f 29 28 bd ec fe 20 3c
       -0.031243967 -0.011539152 -0.04105514 0.009826403
000090 55 89 9f bc b5 31 0c bd c2 82 57 bb 50 fb bd 3c
       -0.019474665 -0.03422709 -0.0032884334 0.023191124
0000a0 79 57 5f 3c 8f b3 d7 3b a3 fc 30 bc fc f8 e4 ba
       0.013631695 0.0065826843 -0.010802421 -0.0017469223
0000b0 32 36 1d bc f0 87 df 3c 65 89 0c 3c 62 ab 8b bc
       -0.009595441 0.0272865 0.008577679 -0.017049495
0000c0 46 df a5 3b 32 81 4b bb 53 34 98 bc 4f 26 97 bb
       0.0050620167 -0.0031052348 -0.018579638 -0.004612721
0000d0 11 04 ab 3c aa 15 25 bd ac 70 98 3b ab aa b7 3c
       0.020875962 -0.040303864 0.0046521034 0.022420248
0000e0 ab e0 0b 3c 00 ba 84 ba d7 c3 aa bc a2 80 8d bc
       0.008537452 -0.0010126233 -0.020845337 -0.017273251
0000f0 c7 80 ad 3c a7 2c 3d 3c 2b 7a ed 3c 90 2b 26 bc
       0.02117957 0.0115462905 0.028988918 -0.010142222
000100 5e 61 f2 3c 97 bc 33 3c de 01 15 bc 3a 3c b3 bc
       0.029587444 0.010970256 -0.009094683 -0.021879304
000110 00 b8 ab bc 5e c0 44 bc cb d8 1b bc dc 10 c3 3b
       -0.020961761 -0.012008755 -0.009512137 0.0059529375
000120 d9 52 b9 3c 59 6c d6 bb c6 76 17 3b 64 e3 77 3c
       0.022622513 -0.0065436778 0.0023111566 0.015129898
000130 7b 8a 84 3c 83 cc 0f bc 13 b2 3d 39 9d 73 f6 bc
       0.016179314 -0.008776787 0.00018090782 -0.030084426
000140 d9 af a4 bc 16 fa ec bb 79 a5 81 ba d2 6d 4c ba
       -0.020103382 -0.007231961 -0.0009891234 -0.0007798347
000150 ac c4 23 3c 86 f7 02 bd ae 2a 53 bc 30 5e 13 bc
       0.009995621 -0.031974338 -0.012888594 -0.008994624
000160 c2 fe 9c 3c 4a f5 27 bd 11 82 50 3c 9c d1 b0 3c
       0.019164447 -0.04100541 0.012726323 0.021584325
000170 e8 77 69 bc 6b 88 d0 3b 46 8c 99 3b 32 20 00 ba
       -0.014249779 0.0063639185 0.0046859113 -0.000488761
000180 1f 5c 4c 3a e9 43 52 bc e9 69 50 bd 8a e4 db 3b
       0.00077957095 -0.012833574 -0.050882254 0.0067105936
000190 4b be ac bb 72 08 00 3c 19 20 ed bb 74 e0 d0 bb
       -0.005271708 0.0078145135 -0.0072364924 -0.006374413
0001a0 cd aa 93 3c 73 37 84 ba 03 04 e1 bb 4c ee 01 bd
       0.01802578 -0.0010087326 -0.0068669333 -0.0317214
0001b0 db b7 fd 3c 61 de 3f 3c 20 4f 32 3d 3b 4c a6 bb
       0.030971458 0.011710734 0.04353249 -0.0050750053
0001c0 37 8c 08 bd 6d 62 db bc c5 89 10 bd 3e 83 c7 3b
       -0.033336844 -0.026780332 -0.035287637 0.0060886433
0001d0 12 23 d8 bc ce 60 08 3c 93 8c ec 3c 23 11 e8 bb
       -0.02638391 0.008323861 0.028875625 -0.007082121
0001e0 c9 80 0b 3b f4 83 1e 3c 54 cf e5 3c fb 5c 6c bc
       0.0021286479 0.009675015 0.028052963 -0.014426465
0001f0 a8 f9 65 3c af b5 b1 b6 ef 1a 33 bd de ad 90 bc
       0.0140365735 -5.296162e-06 -0.043726858 -0.017661031
000200 84 4a 72 bc 2f af f8 3b c8 d0 e7 3c 5c 3d 24 3c
       -0.014788274 0.007589243 0.028297797 0.010024395
000210 9f b1 78 bc 9a cb 90 3c a2 d6 04 ba 5f d0 00 bb
       -0.015179067 0.01767521 -0.0005067383 -0.001965545
000220 28 d2 69 3c f5 29 05 3d 5a 3e 3d bd 25 6e 2e 3c
       0.014271297 0.032510716 -0.04620204 0.010646378
000230 b7 de 7d bb 79 58 1b 3b 6e 15 ad bc 2e 40 6b 3c
       -0.0038737485 0.0023703857 -0.021128383 0.014358563
000240 20 35 3b 3c 1d 8d 56 bb bc 44 27 3c 64 a2 37 3c
       0.01142624 -0.0032737919 0.010209259 0.011208151
000250 86 cb 54 bd b4 29 a2 3c 77 9b 1a 3d 65 3b 60 bb
       -0.051951908 0.019795276 0.03774592 -0.003421509
000260 47 22 a1 3a 60 d6 0e bc d4 09 00 3d af 42 41 bd
       0.0012293541 -0.008718103 0.031259373 -0.047182735
000270 6f cb 27 bb 05 fa 8a 3c 0a 90 c9 bb c7 4b 54 bd
       -0.0025603434 0.016964922 -0.006151204 -0.05183008
000280 d9 6c 4b bc c3 2f 47 bc 66 a6 f5 bc cc be 8e bc
       -0.012416088 -0.012157383 -0.029986572 -0.017424963
000290 8f 89 62 bd 70 ba f1 3c 19 f9 3e 3c 46 27 f8 bc
       -0.055306967 0.029507846 0.011656069 -0.030292165
0002a0 62 88 41 bc 4d 50 1b bc ef 19 d9 bc ec 8f 4d 3c
       -0.011812301 -0.009479594 -0.026501624 0.012546521
0002b0 73 a2 97 bc 3e 1b 82 3c 49 98 10 3b d0 b3 cf bb
       -0.018510079 0.01588213 0.0022063425 -0.006338574
0002c0 4a 04 c1 bc 3a 96 c6 bc 66 07 ef bc a5 74 8d ba
       -0.023561615 -0.024241555 -0.029178333 -0.0010792209
0002d0 b7 13 29 3c 78 c7 cf 3b 96 04 de 3b 36 bf fb bb
       0.010319642 0.006340917 0.006775449 -0.007682706
0002e0 6b 48 00 3c 0e f6 d1 bb a9 b2 39 3a 1a d8 6c 3c
       0.007829766 -0.006407506 0.00070838124 0.0144558195
0002f0 f2 45 9a 3c 64 9c 0a bd c7 45 01 3d 86 89 c7 bb
       0.01883218 -0.033840552 0.031560685 -0.006089392
000300 e7 6e 4f bc 30 8f 7d 3c cf c8 67 bc b8 15 2c bc
       -0.0126607185 0.015476033 -0.014146998 -0.010503225
000310 47 df c2 3c 29 f8 37 3c 8d 95 44 3b e7 b5 53 bd
       0.023788108 0.0112286 0.0029996366 -0.051687147
000320 9c 11 03 3d 28 c4 9c bc 27 e5 6f bb 41 95 f6 bc
       0.031999215 -0.019136503 -0.0036605091 -0.030100467
000330 94 7d 97 3c 97 da ce 3a f2 67 0f bd 5d d8 93 3c
       0.018492498 0.0015781698 -0.03501124 0.018047506
000340 a1 ba a9 bc 1e 3d c0 bc 27 bb 17 bd c6 03 19 bd
       -0.020718874 -0.023466643 -0.037043717 -0.037357114
000350 f6 dd 46 bc 50 d4 fa bc 40 2f 2a 3c 0a 73 a2 3b
       -0.012137881 -0.030618817 0.010387242 0.0049575614
000360 d8 46 1a bd 69 ad 59 bd 07 50 ca bc 68 ab 2a bc
       -0.037665218 -0.053143892 -0.024696363 -0.010416843
000370 d0 59 c1 3c 14 a5 12 3c 3f b7 f6 bb 91 ca ca bc
       0.023602396 0.0089504905 -0.007529169 -0.024754794
000380 04 7d 9c 3c ab c8 0c bc 33 6c f1 bb 31 ae 5f bc
       0.01910258 -0.008592765 -0.0073676347 -0.01365237
000390 09 7c 90 bc 50 e5 a6 3b 52 3a 7f bc 35 bd 4b 3c
       -0.01763727 0.005093254 -0.0155778695 0.012435247
0003a0 6f ce 86 3c 57 1f 07 bd 71 9d f2 3c 39 2b 8d bb
       0.016455857 -0.032988872 0.02961609 -0.004308131
0003b0 3e eb a8 3b 15 82 f4 ba a6 1c fa bb 52 40 67 3c
       0.005154996 -0.001865449 -0.0076328097 0.014114456
0003c0 a7 8f 50 bc d3 d7 ba bc e4 a0 bf b9 dc ee 7d 3c
       -0.012729562 -0.022807991 -0.00036550232 0.015498843
0003d0 e0 6b 1f bc 3b f4 b5 3c de e2 8c bc 6c bf c4 bc
       -0.009730309 0.022211185 -0.017198022 -0.024017058
0003e0 5b 2d 61 3b 4b 74 fb bc f2 d3 9b bc ae ea 94 bc
       0.003435931 -0.030695101 -0.019021962 -0.01817831
0003f0 ce 03 a1 bc 91 26 e6 bc 40 af 87 3c 62 b0 39 3b
       -0.019655135 -0.028094562 0.016563058 0.0028333892

decoder.1.conv.conv.bias f4 [64]
000000 52 4e b9 bc b9 3b 29 bd c9 5d f7 bc a2 84 a1 3c
       -0.022620354 -0.04131672 -0.030196087 0.019716565
000010 0a bc fa bc 10 1e 89 3c f6 d4 b6 3c 82 31 d4 bc
       -0.030607242 0.016737968 0.022318345 -0.025902513
000020 3a 40 d9 3c 74 6b 5c 3c da 52 5a bc 26 eb c1 3c
       0.026519883 0.013453353 -0.013325417 0.023671698
000030 b0 e3 7d bd 67 0c f7 bc 43 28 86 bc cc 95 27 3d
       -0.061984718 -0.030157281 -0.01637662 0.04091434
000040 ab 70 a4 3c e2 26 0f bc 22 8e c2 bc 49 26 19 bd
       0.020073256 -0.008737298 -0.023749415 -0.037390027
000050 76 14 68 3b ab 17 db bc db d8 08 bc 54 70 cd bc
       0.0035412586 -0.026744684 -0.008352484 -0.025077976
000060 fd ba 89 3c c9 8f 15 bd 07 8e 2c bc 4f b1 54 3c
       0.016812796 -0.036514077 -0.010531909 0.012981727
000070 90 75 41 3c 74 26 de b9 60 03 46 bc 9b 1e 3a 3c
       0.011807814 -0.0004237179 -0.012085766 0.011359836
000080 b2 1e af bc cd a2 c4 ba c1 bf d5 bc 0f 45 06 bd
       -0.021376941 -0.0015002132 -0.026092412 -0.032780703
000090 3b 9d a4 3a 5a e1 91 bc 63 d5 5b bd 33 cf 4a bd
       0.0012559065 -0.017807651 -0.0536703 -0.049514007
0000a0 93 10 bd bc 60 18 c7 bc fb dc 82 bb c4 dd 7c 3c
       -0.023079192 -0.024303615 -0.003993628 0.015433732
0000b0 17 b2 85 3c 0e 8c ff bc db aa 1e bb e7 49 a6 bc
       0.016320271 -0.031194713 -0.0024210725 -0.020298911
0000c0 42 c4 c0 bd 9e 56 31 bc c1 fb 8e 3b dc 63 c7 bc
       -0.09412433 -0.010823874 0.0043635075 -0.024339609
0000d0 d5 ca c6 bb d1 46 50 ba 58 45 28 bb 89 d6 41 bc
       -0.00606666 -0.0007945123 -0.0025676098 -0.011830934
0000e0 34 4f 00 bc 46 86 16 bd ff 0a 75 bc e3 ae be bb
       -0.0078313835 -0.036749147 -0.014956235 -0.005819188
0000f0 84 70 e5 3b 24 81 cc bc df 54 16 bc 59 bd 87 bc
       0.0070019383 -0.024963923 -0.009175508 -0.01656978

decoder.2.conv.conv.weight f4 [40, 64, 3, 3]
000000 54 39 72 3c e1 ee 1a 3d 40 1f 67 3b ac e9 53 bc
       0.014784176 0.03782547 0.003526643 -0.01293413
000010 d3 34 be bc 0c 2f 1f bc 49 18 fb 3c 43 d9 27 bb
       -0.023218548 -0.009715807 0.030651229 -0.0025611676
000020 f3 0a e1 3b 63 9c f2 3b 12 09 3b 3d 63 2f d8 3b
       0.0068677603 0.0074038967 0.045662947 0.006597446
000030 27 2c c8 3c 3b de 68 3c 09 a3 5e 3c f3 c5 3c 3c
       0.024435116 0.01421314 0.013588675 0.011521804
000040 9c f9 b3 bb 25 23 4d bc d1 4a 38 3d c6 45 4b 3d
       -0.0054924022 -0.012520586 0.044993225 0.049627088
000050 93 05 82 3c ed 02 d7 3c 7f b5 d8 3c c0 0c a5 3b
       0.015871799 0.026246512 0.026453732 0.0050369203
000060 ed de 38 bc e3 f0 59 3b 5d d0 21 bd d3 d5 42 3c
       -0.011283618 0.0033255152 -0.03950535 0.0118918
000070 ec 05 06 3c 6f 3a 79 bc 89 1c 97 bb e0 1a 24 bd
       0.008180123 -0.015211686 -0.004611556 -0.040064692
000080 5c c6 b7 bb af 05 ed 3c c2 40 61 bc 4f 7f 48 3c
       -0.005608363 0.028933374 -0.01374835 0.012237384
000090 a2 32 0d bd ef c0 62 bd bf 21 85 bd 6f 68 cb bc
       -0.034472115 -0.055359777 -0.06500577 -0.024830071
0000a0 05 11 10 3b 1c 92 a4 bb a6 07 96 3b 0b a1 87 bc
       0.00219828 -0.0050223004 0.0045785485 -0.016556283
0000b0 bf fe 07 3d 5b a2 1e bd 08 9f 1a bd 3f 68 8b bc
       0.03320193 -0.038729053 -0.03774932 -0.017017482
0000c0 e0 83 20 3c b7 dd a9 3c 31 64 dc 3c 5e da 50 3d
       0.009797066 0.020735605 0.026903244 0.0509895
0000d0 e6 26 17 3d 06 88 88 3c bc 02 41 bd 92 ca c9 bc
       0.03690233 0.016666424 -0.04712175 -0.024632726
0000e0 55 fb 12 bc 32 33 47 3d e0 1f 97 3c c6 eb 1b 3d
       -0.008971055 0.048632808 0.018447816 0.038066648
0000f0 fa f4 5d 3d 36 71 9e 3c 2e 68 ff 3c 24 7f c5 3c
       0.054188706 0.019341093 0.031177606 0.024108477
000100 95 13 06 3c 28 b9 19 3d c7 b9 85 3c 61 cf 20 3b
       0.00818338 0.037530094 0.016323937 0.002453767
000110 12 a7 d8 3c c0 53 0d ba 56 20 f4 bb 41 03 1c 3c
       0.026446853 -0.0005391203 -0.007450144 0.00952226
000120 b4 8a 84 bc 04 33 ec bc 98 0b bf bc d8 22 95 3c
       -0.01617942 -0.02883292 -0.023320958 0.018205091
000130 3e f7 1c 3c 4a d0 c5 3b e3 f0 2a 3c 3f 95 0b 3d
       0.0095804315 0.006036793 0.010433408 0.03407788
000140 ea 70 17 3d 03 91 2a bc 87 9c 97 3b 12 a2 ed 3c
       0.036972918 -0.01041055 0.004626814 0.029007945
000150 fd 15 30 bc a7 7b e5 bc fe 24 01 bd 91 5a b5 bc
       -0.01074743 -0.028013064 -0.03152942 -0.022137912
000160 01 64 8c bb f3 49 9f 3c 75 55 42 3d c0 e3 c4 3c
       -0.0042843823 0.019444441 0.04744478 0.02403438
000170 37 3c 6f ba 93 46 fc bb fc 2f 2c bd 4b fc d7 bc
       -0.0009126099 -0.007698843 -0.04203795 -0.02636542
000180 89 03 29 bd af 1a 8a bc 8f 4b bc bc 20 75 0c 3c
       -0.041263137 -0.016858427 -0.022985248 0.008572847
000190 15 e1 2e 3d b1 b8 63 ba 21 4d 72 bc f3 77 6e 3b
       0.042695124 -0.0008686884 -0.014788897 0.0036387413
0001a0 53 64 46 3c a2 fa 15 bc 90 c9 e0 3c 46 b6 ff 3c
       0.01210888 -0.009153994 0.027439862 0.031214844
0001b0 ee 25 9c bc 65 5f a8 bc ae cf 42 bd 3a 36 86 3c
       -0.019061055 -0.0205533 -0.04756134 0.01638328
0001c0 7a 84 a3 3c 27 db dc 3b e6 f2 b3 bc 11 a3 14 bd
       0.01996063 0.006739992 -0.021966409 -0.036288325
0001d0 2c 3d 7d 3b 34 42 e0 3c 27 3c bf 3b e0 b8 22 3d
       0.0038641198 0.027375318 0.005836028 0.03972709
0001e0 ec d8 ce bc 24 1e 59 3c 76 22 41 3c c3 df 5e 3c
       -0.02524992 0.013251815 0.011788001 0.013603154
0001f0 39 f5 09 bd a1 34 77 3c e3 e4 b9 bc 35 6c 42 3d
       -0.03368113 0.015088231 -0.02269215 0.047466476
000200 ef 45 c0 3c 72 5b aa bc 0f fd c0 bc 85 fc 1c bc
       0.023470847 -0.020795558 -0.023558168 -0.00958169
000210 43 ff 9a bc 95 fa 56 bd cb 1f ae bc 96 93 f8 bc
       -0.018920546 -0.052485067 -0.021255394 -0.030343812
000220 39 a9 f8 bc 4b 80 ea bc a1 f9 a5 3c 10 89 55 3c
       -0.03035413 -0.028625628 0.020260634 0.0130331665
000230 57 02 26 bb 31 cf 3f 3d 0d 3c 6d 3d a6 4b 70 3c
       -0.0025330984 0.046828452 0.057918597 0.0146664735
000240 be 34 50 3c 8c 1b a2 3c 13 84 c4 bb 31 3c 17 bc
       0.012707887 0.019788526 -0.00599719 -0.009230659
000250 50 72 13 bd f4 86 bd 3b 82 17 82 bc 58 6a eb 3c
       -0.03599769 0.00578391 -0.01588035 0.028737232
000260 cf 34 bc 3c 54 d9 56 bc 8f e1 ef 3c 2f 42 3b bb
       0.0229744 -0.0131133385 0.02928236 -0.0028573384
000270 21 9a 00 bd e6 8c df bc 21 95 a1 3b e6 a1 6b bb
       -0.03139699 -0.027288865 0.0049311076 -0.0035954653
000280 43 21 ff bc a6 1f cf bc 89 8f fe 3c 85 ab 03 3d
       -0.03114379 -0.025283646 0.031074302 0.032145996
000290 79 c3 9d bc 4b da 67 3c e6 c7 11 bd ec 06 c2 3c
       -0.019258248 0.014151166 -0.03559103 0.023684941
0002a0 20 ed 2b bd 51 68 38 bd f3 0f a3 bc ab 5c 9d bc
       -0.041974187 -0.04502136 -0.019905066 -0.019209227
0002b0 4b d1 0b 3d 4a f0 14 bc 10 63 57 bc c9 48 20 3b
       0.034135144 -0.0090904925 -0.013146177 0.0024457446
0002c0 8d ec b8 3b 63 45 07 bd 70 a2 1a bc b6 c4 a7 bc
       0.0056434334 -0.033025157 -0.009438142 -0.020479541
0002d0 c0 bc f2 3b aa bc 06 bc 43 84 c0 ba 70 c1 15 3d
       0.0074077547 -0.008223692 -0.0014687855 0.03656143
0002e0 60 43 ac 3c 41 e8 cb 3b 3e 99 1c 3d 02 59 5f bc
       0.02102822 0.006222755 0.03823208 -0.013632061
0002f0 6c 1f bf bb 1f b3 b5 3c 1a 1e 1f 3c 62 e8 47 ba
       -0.005832603 0.022180138 0.009711767 -0.00076258753
000300 22 8e 9a 3c 15 77 29 3c f4 5d 96 3c 06 84 fa bc
       0.018866602 0.010343333 0.018355347 -0.030580532
000310 9e d8 c0 bb 76 50 48 3d b1 3e 87 bc 38 0b be 3c
       -0.005885198 0.04890486 -0.016509386 0.023198709
000320 90 6c 6f 3c 5b 37 56 3c 52 e4 f2 3c 45 d6 7b 3c
       0.014613286 0.013074721 0.029649887 0.01537091
000330 8c b8 9e bc 3b ff 56 bb de a6 85 bc 52 d4 6a 3d
       -0.019375108 -0.0032805938 -0.01631492 0.05733139
000340 d7 7f 8d bb 3c f7 56 3b 67 ba 9c bb b5 b3 55 3c
       -0.004318218 0.0032801172 -0.004782963 0.013043334
000350 cf 38 1a bc f5 47 ec bb b0 56 12 bc fd 2d 32 3b
       -0.009412958 -0.0072107264 -0.008931801 0.0027188056
000360 6d df 9f bb 90 77 7e 3c e7 6f 33 3c b2 47 c1 3c
       -0.0048789294 0.015531436 0.010951973 0.023593757
000370 63 2e d1 3c 44 d3 04 3c 8e 6b 5a bc 45 05 10 3c
       0.025534814 0.00810701 -0.013331307 0.008790319
000380 56 24 ad bc f0 b1 46 bd cf 95 0e bd a7 bc 0f bd
       -0.02113549 -0.04850954 -0.034810837 -0.035092022
000390 7d e2 45 3c 11 68 c3 bb 82 02 e7 ba 4a 9f 63 3d
       0.012077925 -0.0059633334 -0.0017624649 0.05557183
0003a0 b9 02 c7 bc cd 51 42 3c 3a ee 06 3d 8b bd 35 3b
       -0.02429329 0.011860323 0.032942034 0.0027731385
0003b0 9f ea c4 3a f1 72 4b bc 1c 1c 50 bd 21 6c ac bb
       0.0015023536 -0.012417541 -0.050808057 -0.0052619134
0003c0 40 67 a8 ba 37 9f e2 bc 62 d6 38 bd 05 c9 8a 3c
       -0.0012848154 -0.02766381 -0.045126326 0.016941557
0003d0 fc a1 d1 3b 6a 51 5c bd 38 12 95 3c 0a 4a 0c ba
       0.006397484 -0.05378858 0.018197164 -0.0005351609
0003e0 f8 f7 b3 bc 90 ab 62 3b cd 19 4b 3b a4 02 72 3c
       -0.021968827 0.0034587122 0.003099072 0.014771137
0003f0 09 85 51 39 fb 0c 00 3d 41 71 64 3c fd 72 28 3c
       0.00019981353 0.03126238 0.013943017 0.010281322

decoder.2.conv.conv.bias f4 [40]
000000 28 fb 26 ba d5 56 bf ba 16 ba c0 bc 82 0f 85 bc
       -0.00063698227 -0.0014598022 -0.023526233 -0.016242746
000010 66 a0 dc bc 39 99 7a bb fd f0 ad bb 15 f2 79 3c
       -0.026931953 -0.00382383 -0.005308269 0.015255471
000020 d3 95 b2 bc 74 e3 00 3c 37 7b 98 ba 15 32 11 3c
       -0.021799957 0.007866729 -0.00116334 0.008862038
000030 50 58 96 3c bc 09 ba 3b 7b b6 8b ba 84 d2 ef 3b
       0.018352658 0.00567743 -0.0010659242 0.0073187966
000040 98 f3 08 3b a0 f0 1c b7 cf 79 54 bc b4 da dc 3b
       0.0020897146 -9.3543495e-06 -0.012968495 0.0067399386
000050 6c c0 47 3b 64 89 81 3c 3a de 62 3b 70 d9 8f 3c
       0.0030479683 0.015812583 0.003461732 0.017559737
000060 0a 11 8b bc 1f 9a 92 bc 07 8e b2 bc b8 17 9c bc
       -0.016975898 -0.017895756 -0.02179624 -0.019054279
000070 69 fe 34 3b a3 49 88 bc 96 65 09 bb 3a f2 89 3c
       0.002761746 -0.016636675 -0.002096509 0.016839135
000080 93 f2 19 bc fc 73 04 bc 80 92 8e 3c 9a 4a e4 3c
       -0.009396213 -0.008084293 0.017403841 0.027867604
000090 f5 3c 43 3c 59 21 2e bc 21 70 b1 bc 9b d1 d7 bb
       0.011916389 -0.010628068 -0.021659913 -0.006586266

decoder.3.conv.conv.weight f4 [40, 88, 3, 3]
000000 53 a1 b4 3c 56 ce b5 bc ce aa 1f 3c bd de a2 3c
       0.022049582 -0.022193115 0.009745313 0.0198816
000010 8d aa 06 bc 7b de 87 3c cb af 8e 3c ef fa 91 3b
       -0.008219373 0.01658558 0.017417809 0.0044549624
000020 f1 a1 98 3b 7c 60 d1 38 78 01 95 bb 14 36 f9 bc
       0.004657977 9.983868e-05 -0.004547294 -0.030421294
000030 aa ac f0 3c 87 20 95 38 30 07 87 bc 1c 62 22 3d
       0.029379208 7.110932e-05 -0.01648292 0.039644346
000040 a0 ca 0c 3d f3 60 72 bc 49 12 e1 bc 0e 11 f9 bc
       0.034372926 -0.014793622 -0.02747454 -0.03040364
000050 38 b6 33 bc e6 50 8e bc ee a3 8c ba c2 d1 9c 3b
       -0.010968737 -0.01737256 -0.0010730007 0.0047857473
000060 de be 86 3c 43 0d 05 3b 40 c7 bd 3c c5 d0 3b 3c
       0.016448434 0.0020302094 0.023166299 0.011463349
000070 db 6f 22 bd ff ec be 3a 30 5a 06 3c ed eb 33 3c
       -0.039657455 0.001456648 0.008200213 0.010981542
000080 51 8d 08 3d ce 55 e6 bc 44 f5 98 bc 9a b6 68 ba
       0.033337895 -0.028117087 -0.01867164 -0.00088773074
000090 7f b3 8b bc e6 65 74 bc fc 21 eb bc 21 cb db 3b
       -0.017053364 -0.014916873 -0.028702728 0.0067075645
0000a0 b1 f0 ae 3c 29 71 92 3b b7 01 e2 bc de 37 aa 3b
       0.021355005 0.004469056 -0.027588708 0.005194648
0000b0 27 1c 2c bc 55 d5 85 bc 82 58 99 bc 53 a9 06 3c
       -0.010504759 -0.016337076 -0.018718962 0.008219081
0000c0 eb 01 80 3c 44 78 42 3c 75 e5 14 3c 82 70 41 3c
       0.015625915 0.011869494 0.00908791 0.011806609
0000d0 6a f4 15 3c 14 67 e2 3c 63 ee d4 bb ce 72 16 bd
       0.009152511 0.027637042 -0.0064981445 -0.03673058
0000e0 95 1e fb bb ec fd 0d 3b 33 72 8d bc 10 1b 14 bc
       -0.007663558 0.0021666242 -0.017266368 -0.009039655
0000f0 38 de dd 3c ca 8d c2 bb 57 6e 91 bc bd 6e 17 3d
       0.027083501 -0.0059373127 -0.01775281 0.036970843
000100 e2 b1 2d 3c 67 22 2e 3d 36 70 8f 3d f2 5c 65 3c
       0.010601493 0.042513277 0.070038244 0.013999211
000110 61 bc 0a 3d 6f 2a c1 3b b7 3b d2 3c 56 03 25 3d
       0.03387106 0.005894951 0.02566324 0.040286385
000120 d2 b0 81 bc 4c ab 99 bb f8 48 df bc 1d 6b 91 bb
       -0.015831385 -0.0046896096 -0.027256474 -0.0044378177
000130 ff 04 85 3c 20 84 10 bb 0c 41 1c bc 01 fd 78 bc
       0.016237734 -0.002205141 -0.009536993 -0.01519704
000140 f4 00 e3 3c dc 49 98 bc c1 e0 a0 bc e8 d6 04 3b
       0.027710415 -0.018589906 -0.019638421 0.0020269696
000150 6e 74 4c bc 48 2c 74 bb 76 e4 5b 3c 1e 36 1b 3c
       -0.012478931 -0.003725784 0.013421169 0.009473352
000160 d4 54 aa bc c8 ae 0a 3d 9b 41 5e 3c 33 30 d3 bb
       -0.020792402 0.03385809 0.013565446 -0.006444955
000170 92 91 84 3c 38 0a 9a 3c d5 f6 b6 3c 33 89 0a ba
       0.016182695 0.0188037 0.022334496 -0.00052847265
000180 a9 7a c2 3c bc 14 f5 3c 72 74 75 3c 2b 27 c3 3c
       0.02374013 0.029917113 0.014981376 0.023822388
000190 d6 96 b9 bc 34 c6 f0 3c d4 b7 71 bc 96 4c 93 3c
       -0.022654932 0.029391386 -0.014753301 0.017980855
0001a0 56 9f 1b 3a ba 51 8d 3b 59 c6 a9 3c 3f 73 bf 3a
       0.00059365237 0.004312721 0.020724462 0.001460649
0001b0 6e ed cf 3c 1c 8d 96 bc a9 05 83 bc b3 18 49 bd
       0.02538177 -0.018377833 -0.01599391 -0.04909582
0001c0 f4 d5 4a bb 90 a4 73 bc 48 62 1b bd e4 8c 01 bd
       -0.003095028 -0.014870778 -0.037935525 -0.031628504
0001d0 c4 6d 74 bc 5d 03 12 3b 8c 01 a8 3c 7f 14 0f 3c
       -0.014918748 0.0022279837 0.02050855 0.008732914
0001e0 56 2a a9 3c 72 6c ce bc f8 a9 36 bd 4f 31 0d bd
       0.02065007 -0.025198195 -0.04459569 -0.034470852
0001f0 75 c0 43 3c 55 4f 9f bc 3d 31 5a 3c ed ef 82 3c
       0.011947741 -0.019447008 0.013317403 0.015983546
000200 ba 48 f2 3c 4e 37 c2 bc a5 61 ab bc 26 3e 5d bc
       0.029575694 -0.023708012 -0.020920584 -0.013503587
000210 0b 14 8f bd a4 bf af ba e1 77 b1 3b ae b7 49 3d
       -0.06986245 -0.0013408554 0.005415902 0.049247436
000220 4f 07 f8 3a 6e b8 22 3d 85 5a 37 3d d9 17 8d 3c
       0.0018923077 0.039726667 0.04476406 0.017223286
000230 6e 1d 1e 3d 39 ca df 3b b0 c0 ec 3c 1d cc 86 3c
       0.038602285 0.0068295267 0.028900474 0.01645475
000240 6c 17 dd b8 a1 bf ad 37 93 6d f7 3c 13 98 20 3d
       -0.00010542464 2.0712441e-05 0.030203616 0.03920753
000250 07 b2 17 bb aa 23 18 bb 9a d7 0e 3d a0 ce 72 bc
       -0.0023146884 -0.0023214617 0.034873582 -0.014819771
000260 e0 cf 74 bc cf bf 3c bc d5 71 a1 ba 8f a1 50 3c
       -0.014942139 -0.01152034 -0.001231725 0.012733831
000270 36 3f 30 bd 83 fa f2 3c 3b ad bc 3b a3 8d 82 bc
       -0.043029033 0.029660469 0.0057579554 -0.015936678
000280 de a7 ca 3c 1a 1c 89 3c 78 94 5d bc 1f 8f 80 3c
       0.024738248 0.016737033 -0.013524167 0.015693245
000290 48 79 1e 3c 5e dd 36 3c 72 96 a7 ba 57 68 68 ba
       0.00967247 0.0111611765 -0.0012785925 -0.00088656455
0002a0 3e 91 39 bd f4 01 22 bd 53 43 71 3b 50 ab f2 3a
       -0.04530453 -0.039552644 0.003681381 0.001851419
0002b0 98 2a 0f 3c 94 d6 83 ba 17 e0 ad 3b 84 d5 bc bc
       0.0087381825 -0.0010058456 0.0053062546 -0.023051031
0002c0 c1 8a 83 bc 89 b9 24 3c 7b 9e b7 bc 8b e7 4a bc
       -0.016057374 0.010054001 -0.022414437 -0.012384306
0002d0 06 d5 b7 bc 77 60 2f bd d1 3f b7 bc 1b f8 1a bc
       -0.022440445 -0.042816605 -0.022369297 -0.009458567
0002e0 11 0e b9 3b 12 7c c8 3c 81 c2 77 3c 51 66 80 3c
       0.005647429 0.024473224 0.015122057 0.015673788
0002f0 8c 14 b5 bc 1e 48 ed 3c 66 89 5f 3c e6 b5 bc bb
       -0.022104524 0.028965052 0.013643598 -0.0057589887
000300 fe 74 38 bc 3b 23 cd bb 41 72 33 bd ba d5 a4 bc
       -0.011258362 -0.0062603033 -0.043810133 -0.020121444
000310 a4 82 ac bc fd bc 87 bb ce d1 ff 39 1a 6d 58 3c
       -0.021058388 -0.004142402 0.00048793707 0.013209606
000320 34 b8 ab 3c 75 ae d1 3c f1 8b 60 bb 73 63 08 bd
       0.020961858 0.025595883 -0.00342631 -0.033297967
000330 98 23 57 bc a0 85 17 bc 67 c1 2d bc 3e f2 b8 3c
       -0.013131045 -0.009248167 -0.010605193 0.022576448
000340 6d ec 39 3d f4 d7 36 3d 34 3a 22 3c 54 15 2a 3d
       0.04539149 0.044639543 0.009901572 0.041524246
000350 65 0f 0f 3d d4 dc 7e 3d 4d af 9e 3b a6 44 99 3c
       0.03492679 0.062222317 0.004842675 0.018709492
000360 35 4b b0 3c 1c f1 c1 bc df 17 72 bd 54 b1 95 bc
       0.021520237 -0.02367454 -0.059104796 -0.018273033
000370 e2 e2 0d bd fe 76 48 3c 3d 58 ba 3c bd 4c e8 b8
       -0.0346402 0.012235401 0.022747153 -0.00011076916
000380 1e c8 0f bc ae c9 8e bc 84 73 d8 3c d3 5c fc bb
       -0.008775739 -0.017430153 0.02642227 -0.007701495
000390 31 d7 86 bc d1 20 af 3c 8a 73 98 bb cd aa d5 38
       -0.016460033 0.021377953 -0.004652445 0.000101884456
0003a0 5c 64 01 3c 11 3a 8d 3b d9 45 7b bd 17 49 dc bb
       0.007897463 0.0043099006 -0.06134591 -0.00672258
0003b0 79 9f 21 3b 71 77 90 3c 5e dc 83 bc 9d 77 eb 3a
       0.0024661704 0.01763508 -0.01609629 0.0017964725
0003c0 b7 0c 69 bc e0 bd d1 bc 52 f7 b0 bc 70 df d2 3b
       -0.014224223 -0.025603235 -0.021602307 0.006435327
0003d0 1b 88 41 bd d7 09 2b bc 1b 63 00 3c 28 41 67 3c
       -0.04724894 -0.010439358 0.007836129 0.014114656
0003e0 55 eb 45 3c 7f 03 cb bb 47 45 5d bc 0b f6 13 bc
       0.012080033 -0.006195485 -0.013505287 -0.009030829
0003f0 48 14 23 3c c5 81 11 3b 56 de 1e 3d b1 f3 74 bc
       0.009953566 0.0022202593 0.038786255 -0.014950679

decoder.3.conv.conv.bias f4 [40]
000000 17 5c 50 3c 45 82 82 3c c2 3b 15 bd df ca af bc
       0.012717268 0.015931258 -0.036433943 -0.021459041
000010 d2 26 20 bd ba 3b 2b bd 7b 57 46 bc 6a 88 73 3d
       -0.039099522 -0.041805007 -0.012105818 0.059456266
000020 f2 7b d7 3c d5 81 e1 bc 71 d7 f9 bc 12 ad 98 bc
       0.026304219 -0.027527729 -0.030498238 -0.018637214
000030 85 6a 46 bc 2d e0 88 bb 7d 44 eb bc 34 ea 8c bc
       -0.012110357 -0.0041771145 -0.028719181 -0.01720152
000040 1e 08 a5 bb 71 ba 14 3c 1a 30 77 bd 06 11 df bc
       -0.005036368 0.009077654 -0.060348608 -0.027229797
000050 39 a5 7f bc df 72 15 bd 72 74 e6 3c 58 1b ad bc
       -0.015603357 -0.036486503 0.028131697 -0.021131203
000060 dd 64 5e bc 50 ae cb bc 48 64 f3 bc cf e0 b2 3c
       -0.013573852 -0.024863392 -0.029710904 0.021835713
000070 bb dd db bc 0d 5b 3e bd c2 40 92 39 fd ff ef bc
       -0.026839128 -0.04647355 0.00027895538 -0.02929687
000080 4a 5a 09 bd 61 47 f9 3c fc c7 34 3c ff 1f 4a bd
       -0.033533372 0.030429544 0.011034008 -0.04934692
000090 e6 35 e6 bc ef 98 1c 3d fb 9b de 3c d5 89 40 bb
       -0.028101873 0.038231786 0.027173987 -0.002937903

decoder.4.conv.conv.weight f4 [24, 40, 3, 3]
000000 61 e3 48 bc 9e 51 24 bb cb 65 cd bc dc be a7 3c
       -0.012261243 -0.0025073062 -0.025072953 0.020476751
000010 df cc 41 3a a5 ea 2e 3b b3 8a 44 3d 5b 65 64 bc
       0.0007392894 0.0026690152 0.047983836 -0.013940181
000020 26 e3 f7 3b 87 c3 3f bc 92 30 97 bc e3 37 39 bc
       0.00756492 -0.011704332 -0.018455777 -0.011304828
000030 b4 fe 63 3d 6d 59 5c bc b8 6a 28 3d 5e 8f ee bc
       0.055662826 -0.013449055 0.0411174 -0.029121097
000040 5c 63 2a bb 52 95 09 3c 37 8c 01 bc e1 3e a5 3b
       -0.0025999164 0.008397417 -0.007906965 0.005042896
000050 47 f5 0b 3d 14 83 72 bb bb c6 11 3d 75 4b 05 3c
       0.03416946 -0.0037004398 0.035589915 0.008135666
000060 e4 63 b7 bc 8d 50 eb 3c 80 a1 0a 3b 33 6e 8c 3d
       -0.022386499 0.028724933 0.002115339 0.06856956
000070 96 d0 40 3c 97 9d 9f bd 09 c7 e7 3c 09 a5 8b 3d
       0.011768481 -0.0779373 0.02829315 0.06818587
000080 91 ab 8c 3c 7e bc dd 3c d0 ca bc 3c f4 47 ad bc
       0.017171653 0.02706742 0.023045927 -0.021152474
000090 9d 3f 73 bd 0a d4 2a bd 79 d1 01 bd f6 51 0e bd
       -0.05938684 -0.041706122 -0.03169391 -0.034746133
0000a0 70 c7 0d 3b 54 ac aa 3c 03 45 91 bd e2 10 aa bc
       0.0021633767 0.020834126 -0.07093241 -0.020760003
0000b0 f6 b7 06 bd 17 aa c3 bc 31 c4 e6 bc cc 42 c7 bc
       -0.032890283 -0.023884816 -0.028169723 -0.024323843
0000c0 11 81 2e bd 64 38 36 3d 8a de 76 bc ba dd f3 3c
       -0.042603556 0.044487372 -0.015067706 0.029768813
0000d0 12 9e c9 bc 06 fe 9a 3c eb ac 63 3d d6 c6 4e 3c
       -0.024611507 0.018919956 0.05558483 0.012620648
0000e0 26 66 4b 3d 0c e8 df 3a d7 95 bd bc ba d4 72 3d
       0.049657963 0.0017082705 -0.023142738 0.059284903
0000f0 cc 6e f7 ba 7e ea a2 bc fb 8e 89 bd 4d dd 2e 3d
       -0.0018877625 -0.019887205 -0.067167245 0.042691518
000100 3c 9e e7 3b a7 00 c9 3c 2a 87 c6 3c 1c 56 55 3c
       0.0070684236 0.024536444 0.024234373 0.013021018
000110 ec 64 c5 3d da 4c 44 3d 37 81 6b bd 4b 14 da 3a
       0.0963839 0.047924854 -0.057496276 0.0016638128
000120 ac 15 50 3d bc 8a 0d bd bc d4 5f bd f5 e1 72 3d
       0.050801918 -0.034556136 -0.05464624 0.05929752
000130 71 54 12 3b 45 09 08 bd 3d 89 fc 3d 72 9b 43 3d
       0.0022328163 -0.033211965 0.123308636 0.047755666
000140 c8 e6 ad bc b2 b7 cf 3b aa ec 17 bd a8 c0 a8 bc
       -0.02122821 0.006339037 -0.037090935 -0.020599678
000150 fa 53 53 3c 74 e1 a5 3a 5f da d9 bc 14 48 e0 3c
       0.01289844 0.0012655691 -0.026593385 0.02737812
000160 7e f1 96 ba 90 25 40 3d e7 07 9e ba 80 71 21 3d
       -0.0011516062 0.046910822 -0.0012056798 0.039414883
000170 12 d1 67 3d 45 71 cd 3b b0 c3 cc 3c a7 78 29 bc
       0.05659587 0.0062696063 0.024995655 -0.010343707
000180 71 a8 c1 3c e9 93 34 bc 56 bd bb bc 21 04 54 3d
       0.02363989 -0.011021593 -0.02291743 0.05176175
000190 9a ce 41 bc fa 2d ae bc 73 da 52 3d d4 eb a7 3c
       -0.011829043 -0.021262158 0.05147786 0.020498194
0001a0 38 8f 1b 3d cc d0 83 3d 3b 1b 04 3d 75 37 01 bc
       0.03797838 0.06436309 0.03225253 -0.007886757
0001b0 22 b8 67 3d f0 e5 9c bc 35 10 b0 3c 06 81 f0 3c
       0.056572087 -0.019152611 0.021492103 0.029358398
0001c0 1b 82 68 bc e5 00 4b 3c de ef 6c 3d f1 f5 37 3c
       -0.014191176 0.01239035 0.057845943 0.011228071
0001d0 8b af 04 3d 47 8f 18 3d 34 e1 06 3d 08 14 4d 3b
       0.032393973 0.037246015 0.032929614 0.0031292457
0001e0 3c 8c 3e 3c b0 30 d1 3c cd 04 13 bc 9a 27 0d bd
       0.011630114 0.025535911 -0.008973313 -0.034461595
0001f0 c6 e0 1b 3a a2 d0 4d bc 1e a9 74 bd bb a4 de 3a
       0.00059462746 -0.012561949 -0.059731595 0.0016986349
000200 f8 ca 59 3d 66 92 87 bd 05 6b ef bc 38 ff ee 3c
       0.05317208 -0.0661972 -0.029225836 0.029174432
000210 3d 2f a5 bc a7 5e e1 3c 55 87 a8 3d f5 77 04 3d
       -0.020164127 0.027510954 0.082289375 0.032340962
000220 14 e3 fe 3c f0 e6 1f 3c 2e d7 78 3d c1 df 31 3a
       0.031114139 0.00975965 0.060752086 0.0006785356
000230 c3 74 db 3a 38 79 1d 3d 8c fb 8b bb c2 a2 aa bc
       0.0016743172 0.03844568 -0.00427193 -0.020829562
000240 1f ce c1 3c 1f 52 d4 b9 16 07 8a 3b d7 34 28 3d
       0.023657857 -0.00040496976 0.0042122705 0.041066017
000250 0c 40 97 bc e1 d4 16 bb 62 52 0a bc 94 71 cd bc
       -0.018463157 -0.002301507 -0.008442493 -0.025078572
000260 2b dc f0 bb 66 76 1e 3c 28 4e 14 3c 5f e3 95 3d
       -0.007350465 0.009671783 0.009051837 0.07318758
000270 c2 44 2e 3b 49 3d 05 3d 53 c8 0b 3d 98 e5 2b 3c
       0.0026591276 0.03252915 0.03412659 0.010491751
000280 a3 c9 83 bc dd 22 9a bc 95 e2 75 3c e8 49 f9 3c
       -0.016087359 -0.018815452 0.015007635 0.030430749
000290 36 5f c7 3c fc c2 15 3d 79 5a f0 3b c9 78 20 3d
       0.024337392 0.036562905 0.007335004 0.03917769
0002a0 8a 86 78 bc 1e 1e 3c bd e8 56 c1 bb 63 93 c8 bc
       -0.015168795 -0.04592716 -0.0059002526 -0.024484342
0002b0 13 18 80 bc 10 ae fb bb 65 3c 6b bb a5 7d 05 bd
       -0.01563648 -0.007680662 -0.0035894152 -0.032590527
0002c0 3b 5e 19 3c b7 31 fb ba 77 b0 19 3c 2c b4 06 3d
       0.009360845 -0.0019164596 0.009380451 0.03288667
0002d0 f2 7d c9 3c a5 88 44 bd 95 8c d5 bd de ee e9 3c
       0.024596188 -0.047981877 -0.104272045 0.028556284
0002e0 f5 8b 44 3c 48 ec ce 3c f1 66 4c bc 7e 24 87 bd
       0.011996259 0.025259152 -0.012475715 -0.06598757
0002f0 69 fa 4e 3c f6 19 8c bc 7d 94 a7 bd c2 e4 41 bd
       0.012632945 -0.017102223 -0.08182619 -0.0473373
000300 e0 c4 04 3d 0d e7 02 3c fe da 5c 3c 55 ae 8f 3d
       0.032414317 0.007989657 0.013479946 0.07015673
000310 e9 b8 9f bd b6 b7 43 bd 68 61 9c bd 4d 7c f1 3b
       -0.07798941 -0.047782622 -0.07635766 0.007369554
000320 f1 e8 30 3c c1 c6 20 bd 53 89 54 bd e8 7a 6a 3d
       0.010797725 -0.039252046 -0.051888775 0.05724612
000330 ea ca 8d bd cf 7e 1a bd fc 02 a5 3c 44 86 1e 3d
       -0.069234684 -0.03771859 0.020143025 0.038702264
000340 ec f3 e3 3b e8 7a 1f bc e6 09 c9 3d b2 ae 4f 3d
       0.006956568 -0.009733893 0.09816341 0.05070371
000350 e3 2b b8 bc 60 b5 86 3d 8b 0d 27 3c 9d 33 99 bd
       -0.022481864 0.06577563 0.0101961 -0.074805476
000360 3e 50 3b bc e1 44 06 3d 1a 99 8f 3d be d3 9c bd
       -0.011432705 0.03278053 0.07011624 -0.07657574
000370 64 ee 29 bd fe 9b 87 3d c3 6e af bd 5b aa f6 bc
       -0.041487113 0.0662155 -0.08566048 -0.030110529
000380 72 8a 8e 3d 72 86 f4 3c 28 09 25 3c 1c a2 83 bc
       0.0696 0.029849265 0.010072984 -0.01606851
000390 be 9a ed ba bb 1f 68 bd d2 74 33 bd 4d d7 24 bd
       -0.0018127782 -0.056670886 -0.04381258 -0.04024439
0003a0 24 42 88 bd b5 55 87 bc 1d 7b 1f bc ae 26 0e bc
       -0.0665324 -0.01652036 -0.009733942 -0.008676214
0003b0 a8 c9 f9 bc 87 eb 4d 3c d4 7d 16 bc 41 3d ac bb
       -0.030491665 0.012568361 -0.009185273 -0.0052563255
0003c0 c7 64 02 3c f1 46 87 3c af 44 e0 3b b8 97 05 3c
       0.0079585975 0.01651332 0.006844125 0.008153848
0003d0 80 f7 2f 3c 9d 57 c4 3b e8 68 ad bc 25 d0 21 3c
       0.010740161 0.0059918896 -0.021168187 0.009876286
0003e0 1c 84 30 3b 29 29 a8 bc 89 3d 4c bc c8 5b 35 bc
       0.0026934212 -0.02052744 -0.012465843 -0.011069246
0003f0 d4 9d a6 bc b9 a5 a5 3c de 7e 92 bb 6f 5a 22 bd
       -0.02033893 0.020220624 -0.00447069 -0.039637025

decoder.4.conv.conv.bias f4 [24]
000000 a1 b3 d6 bc 2b 2f f8 3c 79 a5 6f bc e9 3e a7 bc
       -0.0262087 0.030295929 -0.014626854 -0.02041574
000010 1e 82 9e bc c6 8a e4 bc d0 67 85 3c 4f 23 e4 bc
       -0.019349154 -0.027898204 0.016284853 -0.027848868
000020 4a 0e e7 3b 44 2f 20 bc a2 16 14 bd fb 71 23 bd
       0.007051264 -0.009776894 -0.036154397 -0.039903622
000030 ce 8e 86 3c 18 7b be 3c 53 7c 18 3c 6c 0f ce bc
       0.016425516 0.023252055 0.009306985 -0.025153838
000040 b3 2b 08 bd 8f 59 91 3c b4 57 ca bc 87 95 df bc
       -0.0332448 0.0177429 -0.024700023 -0.02729298
000050 c2 74 d1 bb cc 84 8a 3c ca e9 19 3a bc 3f e6 bb
       -0.0063920924 0.016909026 0.0005871324 -0.0070266407

decoder.5.conv.conv.weight f4 [24, 24, 3, 3]
000000 6c 73 53 bd fc 42 67 bd d1 7a 86 bd b5 cc c9 bd
       -0.051623747 -0.056460366 -0.06566394 -0.09853498
000010 2a 44 33 bd fb ca 60 bd 8f 1c db bd 92 ff a5 bd
       -0.04376618 -0.054881077 -0.106988065 -0.08105387
000020 ef ea 89 bc e0 dd e2 bb a0 29 76 3c 4b 0c c5 3c
       -0.016835658 -0.006923422 0.015024573 0.024053713
000030 c1 b0 31 bd d0 52 55 3d f8 e8 f8 3c 62 68 d8 3b
       -0.043381456 0.05208093 0.030384526 0.0066042403
000040 53 38 ff 3c 04 49 ab 3c 29 af b5 3c 4a 31 2c 3b
       0.031154787 0.02090884 0.02217825 0.0026274496
000050 b8 90 b9 3c 02 32 1e bc 72 b2 43 3d 7b 77 fd 3c
       0.022652015 -0.0096554775 0.0477776 0.030940762
000060 7a 25 26 bb 9e 0c cd ba ab e2 6a 3d 9e 0a 9f bb
       -0.0025351928 -0.0015644019 0.057345074 -0.0048535606
000070 fa a2 67 3b 68 93 57 bb 9e 57 b7 bc 27 eb a0 3c
       0.0035344944 -0.0032894257 -0.022380646 0.01964338
000080 62 7c c0 3c aa 99 3b 3c 78 e5 ab bc ec 58 6f bb
       0.02349681 0.011450211 -0.020983443 -0.0036521507
000090 77 45 11 3e 8c b3 df 3d 8e 5f 20 3d 63 ce 1f 3e
       0.14186655 0.10922918 0.039153628 0.15606074
0000a0 b3 89 f9 3d 36 59 17 3d 27 be 31 3e cb c6 02 3e
       0.12184467 0.036950313 0.17357694 0.12771146
0000b0 21 1e 37 3d 5b cc c3 3c df 4a 91 3d 8c 62 36 3d
       0.044706468 0.023901155 0.07094359 0.044527575
0000c0 dd 9c 4b 3d 14 d1 99 3c 48 74 fd 3c e3 9d 4b 3d
       0.049710143 0.018776454 0.030939236 0.04971112
0000d0 f7 ec 85 3c 8d fa 1a 3d f6 e9 57 bd ce 23 76 3c
       0.016348345 0.0378366 -0.052713357 0.015023185
0000e0 2d ed 9d bc 59 66 aa bb d8 75 06 3c f4 ee 54 3b
       -0.019278133 -0.005200189 0.008206807 0.003249106
0000f0 6b 9a db bc e3 ec 39 bd 6f 13 b6 bc c1 f4 e6 3b
       -0.02680703 -0.04539193 -0.022226064 0.00704822
000100 20 72 0f 3d 07 d0 03 3d b4 f8 22 bc 20 b2 e7 3c
       0.035020947 0.032180812 -0.009946991 0.028283179
000110 09 3b e1 3c d8 59 5a 3c 31 1b 08 3d bd 03 51 3d
       0.02749397 0.0133270845 0.033229057 0.051028956
000120 46 03 2b bc 52 62 48 3c 27 02 65 bc 78 31 b1 bc
       -0.010437792 0.012230473 -0.013977564 -0.021630034
000130 b5 42 90 3c 7d 76 20 3c fd 5a d8 bc be d7 9a 3a
       0.017609933 0.009793875 -0.026410574 0.0011813564
000140 bd 1c 88 3c 62 b0 9a 3d c2 2b 95 3d 08 ad 88 bc
       0.016615266 0.075531736 0.07283737 -0.01668407
000150 ec 80 df 3d d6 b9 24 3e 7c 22 0a 3d d1 e2 61 3e
       0.10913262 0.16086516 0.033724293 0.2205918
000160 0c 95 60 3e 59 43 93 3d 93 ce f7 3c b6 d5 04 3e
       0.21931857 0.0719058 0.03024987 0.12972149
000170 9e 1d 0b 3e d8 b8 78 3d fc b7 39 3e 49 d7 fb 3d
       0.13585517 0.060723156 0.1813659 0.12296922
000180 ec 0d 40 3d 5a 58 46 3e 7c 93 04 3e 6b 56 d7 3d
       0.046888277 0.19369641 0.12946886 0.1051453
000190 8c 08 b2 3d 59 4f 2e 3d a9 9f f9 3d 3d 24 ba 3d
       0.086930364 0.04255614 0.12188656 0.09088943
0001a0 b6 cc 88 3d c5 a4 ec 3d 41 a4 79 3d a4 af 85 3d
       0.066796705 0.11554865 0.06094766 0.065276414
0001b0 d8 0a b1 bc c2 1d 77 3c 73 08 9c bc 20 35 26 bd
       -0.021611616 0.015082778 -0.019046998 -0.040578008
0001c0 aa 86 1b bc 1e 8e c5 3c 33 7c 2a bc de 49 b5 3c
       -0.009492556 0.024115618 -0.010405588 0.02212995
0001d0 74 43 21 bc b1 69 a4 bd e8 ad da bd 57 56 d2 3b
       -0.009842742 -0.080279715 -0.10677701 0.006418984
0001e0 8c 4c d2 bd 61 11 25 be a8 a6 1c bc e1 1b 93 bd
       -0.102685064 -0.16119911 -0.009561218 -0.07183052
0001f0 36 d8 16 be 69 ee 9a bc 70 ae 4f bc 7e b7 1d 3c
       -0.14730915 -0.018912511 -0.0126758665 0.0096262675
000200 b6 fa 03 3d eb d7 8a bc be 20 12 3d b6 cb bf bb
       0.03222152 -0.01694866 0.035675757 -0.0058531417
000210 13 0c 37 bd fd d1 d0 bc 3a bb 8d 3b 74 55 ef 3c
       -0.04468925 -0.025490755 0.0043252977 0.029215552
000220 86 53 57 3c c1 ae d8 3c 16 f1 cd bc 90 65 27 3c
       0.013142472 0.026450517 -0.025139373 0.0102170855
000230 5a 71 6a ba 3a 07 fa 3a 4b 88 16 bc 90 e4 ef 3c
       -0.00089432823 0.001907564 -0.009187768 0.029283792
000240 56 2b 01 bd b0 9d 98 bd 05 93 16 bc df 53 8e bd
       -0.03153547 -0.074519515 -0.009190326 -0.06949591
000250 69 e2 21 be 24 25 00 bd 39 70 05 be a7 42 53 be
       -0.15809025 -0.03128542 -0.13031091 -0.20630895
000260 37 55 36 bd 9a 7f 98 bb c5 5c 1b 3d e9 69 02 3d
       -0.04451486 -0.004653883 0.03793027 0.031839285
000270 f9 47 d1 bb 09 0e 31 3c c1 0a bf 3b 1b 3b 29 3c
       -0.0063867536 0.010806569 0.0058301394 0.010329033
000280 ee 98 f0 3c 69 f7 16 3c 27 e4 12 3d 35 8f d2 3c
       0.029369798 0.009214261 0.035862114 0.025703052
000290 6f 68 c2 3c b7 82 03 3d 62 9d 8b 3c 5d 64 02 3d
       0.023731438 0.03210708 0.01704282 0.031833995
0002a0 f7 75 06 3d f7 12 66 3c ef c6 46 3b eb 69 bc 3c
       0.032827344 0.0140426075 0.0030330976 0.022999724
0002b0 6f 09 15 3d 81 bc 85 3a d8 97 f3 3c 40 64 04 3d
       0.03638595 0.0010203273 0.02973549 0.03232217
0002c0 52 5e 3b 3d 17 33 b1 3c 39 51 95 3c ea 42 50 3c
       0.045744248 0.021630807 0.018227207 0.012711266
0002d0 51 47 8a be 78 c9 18 bd 73 1e ba 3d c0 9f aa be
       -0.27007535 -0.03730151 0.09087839 -0.33325005
0002e0 78 f2 1e bc f2 03 ac 3d ab 42 95 be 7e f6 99 bd
       -0.009701364 0.0839919 -0.29152426 -0.07517718
0002f0 e3 bb ae 3d 93 88 f5 bb ac c9 5b bc 00 e6 e8 3c
       0.0853193 -0.0074930876 -0.013414782 0.028429985
000300 81 ed cc bc 08 ca c5 bc 9f 53 a8 bc ad d7 5b 3b
       -0.025015594 -0.024144188 -0.020547686 0.00335453
000310 69 05 a2 bc 2d d0 59 3c 4e cf 9f bd 3d 93 14 bd
       -0.01977797 0.013294262 -0.07803212 -0.03627323
000320 4d 4b 7d 3d 9f 33 24 be 95 58 d3 bd a3 c7 f2 3c
       0.06183939 -0.16035317 -0.1031963 0.02963621
000330 94 48 42 be e5 3e 9a bd 3e a6 26 3c b2 c8 4a bd
       -0.18972999 -0.075315274 0.010171471 -0.049507804
000340 b3 c3 8c bc c3 65 38 bd 91 06 50 bc bd 2c ec bc
       -0.01718316 -0.045018923 -0.012696878 -0.028829927
000350 9c db 05 bd 7c f1 10 bd ea 68 ba bc c7 c1 44 bd
       -0.03268014 -0.035386547 -0.022755105 -0.048036363
000360 1e de 8a bb 68 da 1a 3b c5 7f 8e bb f9 c3 22 3c
       -0.004237904 0.0023628715 -0.0043487274 0.009934419
000370 9d 5c 6c 3d d6 af a1 3c ff c5 cb 3c 13 a5 0b 3c
       0.05770551 0.019737165 0.024874685 0.0085232435
000380 d0 bd e4 3b 77 52 4e 3c 55 90 01 3d 95 72 20 bc
       0.006980635 0.012592903 0.031631786 -0.0097929435
000390 84 1e 93 3c cc 2e 67 3c 31 7d c2 3c 6d 71 d6 bc
       0.017958887 0.014110278 0.023741337 -0.026177133
0003a0 a1 2f ab bc 58 9c dc bc 76 a6 f1 3c 0f d7 ec 3b
       -0.020896735 -0.02693002 0.02949832 0.0072277854
0003b0 f6 8f 16 3d 51 7c ec ba 46 f6 22 3b 9a 20 0c 3c
       0.036758386 -0.001804242 0.0024866029 0.008552695
0003c0 a7 58 66 bb c2 24 b3 3c 0f c7 b8 3c 44 df 2c bc
       -0.0035148056 0.021868113 0.022555856 -0.010551278
0003d0 e5 ae 7e bb 68 9e 1d 3d 94 03 ef 3a f8 24 bf bb
       -0.003886157 0.038481146 0.0018235319 -0.0058332644
0003e0 01 de 72 3c 68 c5 6c bc 90 7b ff 3c 88 99 91 bb
       0.014823438 -0.014451362 0.031186849 -0.004443351
0003f0 cf 8c fd bb 16 11 18 3c 64 63 a9 3c 4d f9 65 bb
       -0.007737733 0.009281417 0.020677276 -0.0035091222
